torch_mlp_deepshap/splits/2/model.pt (torch, 16573 bytes, 6 tensors)

network.0.weight f4 [54, 6]
0	0xbeafa973	-0.34308967
1	0x3e3e2432	0.18568495
2	0x3e40d00f	0.18829368
3	0x3edb89d1	0.42878583
4	0x3ecdb128	0.40174222
5	0x3e9689e5	0.2940208
6	0xbe37aae8	-0.1793629
7	0xbe573f62	-0.21020272
8	0xbea3ad2b	-0.31968054
9	0xbe70f635	-0.2353142
10	0x3e824c7b	0.25448975
11	0x3d30beee	0.043150835
12	0xbe6589bb	-0.22415821
13	0xbdb14034	-0.08654824
14	0xbeb2f2f7	-0.34950992
15	0x3eb837f8	0.359802
16	0x3d575377	0.052569833
17	0xbe49f75d	-0.19723268
18	0x3eb930b0	0.36169958
19	0x3e4f38c0	0.20236492
20	0xbe6d2a54	-0.23160678
21	0x3ed03fc4	0.4067365
22	0x3d251586	0.04030373
23	0xbf4324b5	-0.76227885
24	0xbe440919	-0.19144095
25	0xbed99be3	-0.42501745
26	0xbdb5d963	-0.08879354
27	0xbea21e79	-0.31663874
28	0xbeef7946	-0.46772212
29	0x3e014221	0.12622882
30	0x3eba24a9	0.36356094
31	0x3d0ba3e6	0.034091853
32	0xbea6048a	-0.32425338
33	0x3dc3df5f	0.09564089
34	0xbe2a8656	-0.16652808
35	0xbe24322a	-0.16034761
36	0xbe5401ca	-0.20703807
37	0x3e0505cb	0.12990491
38	0xbe25a61c	-0.16176647
39	0xbe2a9f07	-0.16662227
40	0x3e6a42cb	0.22877042
41	0xbd156a4c	-0.036478326
42	0xbd363c35	-0.04449101
43	0x3eba3dbc	0.36375225
44	0xbd733471	-0.059376184
45	0x3ef42bac	0.4768957
46	0x3d9686d5	0.07349936
47	0x3eba7536	0.3641755
48	0xbcdbb81d	-0.02682119
49	0x3e8af7a5	0.27142063
50	0x3a0d2ecf	0.0005385698
51	0x3ed010b2	0.40637738
52	0x3d4b17c9	0.04958323
53	0x3e7ac599	0.2448944
54	0x3e74b561	0.23897316
55	0x3de1fe7f	0.110348694
56	0xbeafe399	-0.3435333
57	0xbee6ed42	-0.45102888
58	0x3caf5180	0.021401167
59	0x3e8a9956	0.2707011
60	0x3e4e4b71	0.20145966
61	0x3e44a6ec	0.192043
62	0xbcac7ada	-0.021054674
63	0x3e660ef2	0.22466639
64	0x3e0ad59b	0.13558047
65	0xbd8edef2	-0.06976117
66	0xb9bb59b3	-0.0003573425
67	0x3e8841f8	0.2661283
68	0xbe3796e5	-0.17928655
69	0x3e127823	0.14303641
70	0x3e7f989f	0.24960564
71	0xbf2c81e4	-0.673857
72	0xbc8295e0	-0.015940607
73	0x3e252041	0.16125585
74	0xbe27be08	-0.16381085
75	0xbe532b95	-0.20622094
76	0x3e8271d2	0.25477463
77	0xbe1eb6e5	-0.15499456
78	0x3e020141	0.12695791
79	0x3dc09af9	0.09404559
80	0x3e8300b7	0.25586483
81	0x3ecc4f5c	0.39904296
82	0xbea06c8b	-0.31332812
83	0x3f0723ae	0.5278882
84	0x3dca7f1d	0.09887526
85	0xbe82613b	-0.25464806
86	0x3e9dfabe	0.30855364
87	0x3efe94e5	0.49722973
88	0x3eca73e5	0.39541546
89	0x3f0607f1	0.5235587
90	0xbe9b047f	-0.30276868
91	0x3e2754a5	0.16340883
92	0xbe418284	-0.18897444
93	0xbe833d72	-0.25632817
94	0x3deb7259	0.114964195
95	0x3e1d7268	0.15375674
96	0xbd24e6ca	-0.04025916
97	0x3e9a7e29	0.30174378
98	0x3ed55933	0.41669616
99	0xbd709e18	-0.05874452
100	0x3caefccb	0.021360775
101	0x3d88e87b	0.06684967
102	0x3e23f910	0.16012979
103	0xbd5bfdbd	-0.05370878
104	0xbe70f4ec	-0.2353093
105	0x3e8f2353	0.27956638
106	0x3e9e039e	0.30862135
107	0xbe5d4763	-0.21609263
108	0x3e00ccb6	0.12578091
109	0xbe856417	-0.26052925
110	0x3f05bd20	0.52241707
111	0xbdb043fc	-0.08606717
112	0x3da285f5	0.079357065
113	0xbd22971a	-0.039694883
114	0x3e652cd7	0.22380386
115	0xbdcbf4c3	-0.09958794
116	0x3eb1d0ab	0.34729514
117	0x3eb60e11	0.35557607
118	0x3eaff524	0.34366715
119	0xbea5e852	-0.3240381
120	0x3eb6bbd4	0.35690176
121	0xbd725997	-0.05916747
122	0x3e9b6f07	0.30358145
123	0xbcca0e3a	-0.024664987
124	0xbe022935	-0.12711032
125	0xbcef0bf7	-0.02918051
126	0xbc021fcc	-0.007942151
127	0xbd3b93ef	-0.045795377
128	0x3ea10278	0.31447196
129	0xbe845766	-0.2584793
130	0x3dadd5ca	0.08488043
131	0x3e2006ed	0.15627642
132	0x3e63f0c1	0.22259809
133	0xbd6d20e2	-0.057892688
134	0xbe445db1	-0.19176365
135	0x3dbc24a6	0.09186678
136	0x3e741303	0.23835377
137	0x3ef4303b	0.47693047
138	0x3cdb9405	0.02680398
139	0x3ed5c593	0.417523
140	0xbb4c2cfa	-0.0031154738
141	0x3d0ec10d	0.034852076
142	0x3eafeadd	0.34358874
143	0xbe135660	-0.14388418
144	0x3cde31f8	0.027123436
145	0xbea67875	-0.32513776
146	0xbf0d2ac8	-0.55143404
147	0x3e192dff	0.14958952
148	0xbe324bb8	-0.17411697
149	0xbed36078	-0.41284537
150	0x3dd78b87	0.105246596
151	0x3f11755d	0.5681971
152	0x3bce84a9	0.0063024354
153	0x3ec21a3c	0.3791064
154	0xbda439d9	-0.08018846
155	0xbe03033a	-0.127942
156	0x3e59973f	0.21249102
157	0x3e92b9a5	0.2865726
158	0x3e5b9cbd	0.2144651
159	0x3eb73418	0.35781932
160	0xbe882aed	-0.2659525
161	0x3ed7b600	0.42131042
162	0xbc8a981b	-0.016918233
163	0x3ea7bbee	0.32760566
164	0xbddfca3f	-0.10927247
165	0x3ec9a5c7	0.3938429
166	0xbeec8192	-0.46192604
167	0xbd8e0051	-0.06933654
168	0xbe4668b5	-0.1937588
169	0xbe3ea241	-0.18616582
170	0xbda40574	-0.080088526
171	0x3e5f7315	0.21821244
172	0xbd9049e9	-0.07045347
173	0x3cb17dec	0.02166649
174	0xbe76d4fb	-0.24104683
175	0x3eb8502b	0.35998663
176	0x3e2ec668	0.17067873
177	0xbe19a261	-0.15003349
178	0xbdcef3c2	-0.10105087
179	0xba4c6795	-0.00077974173
180	0xbdc8da32	-0.098072425
181	0x3e5bb580	0.21455956
182	0x3e1030a2	0.14081052
183	0xbd11543e	-0.03548073
184	0x3e32ae26	0.17449245
185	0xbd89f709	-0.06736571
186	0xbe16e96f	-0.14737485
187	0x3f0177fa	0.50573695
188	0x3e376b36	0.17911991
189	0x3ec150b0	0.37756872
190	0xbe6399e9	-0.22226681
191	0x3c891552	0.0167338
192	0x3e10ed8a	0.14153114
193	0x3ca6f71e	0.020381507
194	0xbe83fe29	-0.25779846
195	0x3e246daf	0.16057466
196	0xbe95140f	-0.29116866
197	0x3efe5e24	0.496812
198	0x3ce6c13c	0.028168313
199	0x3e25aa7a	0.16178313
200	0x3cfb5e23	0.030684536
201	0xbe820ada	-0.25398904
202	0xbe7bd814	-0.24594146
203	0xbe6b60c6	-0.22986135
204	0xbcf46ff9	-0.029838549
205	0x3e4c93b1	0.19978215
206	0x3e6960e7	0.22790872
207	0x3f026297	0.50931686
208	0xbe89cc0c	-0.26913488
209	0x3e83834e	0.25686115
210	0xbec0c630	-0.37651205
211	0xbd52489c	-0.051338777
212	0xbdc7e519	-0.09760494
213	0x3e4293b6	0.1900166
214	0xbc3e2610	-0.0116057545
215	0x3edf8ec6	0.43663615
216	0x3c12a019	0.008949303
217	0xbd4b67b0	-0.04965943
218	0xbebc1cf6	-0.36740845
219	0x3dfc8101	0.12329293
220	0xbc942157	-0.018082304
221	0x3c927dcc	0.01788225
222	0x3eed291f	0.46320435
223	0xbda0f694	-0.07859531
224	0xbe933338	-0.28750014
225	0x3eaa8ed7	0.33312103
226	0xbe6f26a2	-0.23354581
227	0xbe8fa9a5	-0.28059116
228	0xbce009f4	-0.027348496
229	0xbe9cf21b	-0.30653462
230	0xbea209a6	-0.31647986
231	0xbebbd241	-0.36683849
232	0xbdd7cc91	-0.10537065
233	0x3d8a6710	0.06757939
234	0xbeb0e225	-0.34547535
235	0xbe51ad79	-0.20476331
236	0xbe895b74	-0.26827586
237	0x3e1ff5b5	0.15621074
238	0xbe918c86	-0.28427523
239	0x3ee9b744	0.45647633
240	0x3cc7688d	0.024341846
241	0xbe25968f	-0.16170715
242	0xbe1c5d3c	-0.15269941
243	0x3eb32281	0.34987262
244	0xbd0fac7f	-0.035076614
245	0x3ed287f0	0.41119337
246	0x3dc31c89	0.09526927
247	0x3db904cc	0.09034118
248	0x3e8041ed	0.25050297
249	0x3e2aafc1	0.16668607
250	0x3ec30fdd	0.3809804
251	0xbddd81a2	-0.10815741
252	0x3da3e115	0.08001915
253	0xbdeade87	-0.11468225
254	0x3e598300	0.21241379
255	0xbdeb47c0	-0.114882946

network.0.bias f4 [54]
0	0x3d088cdb	0.033337455
1	0xbea3c367	-0.31985018
2	0xbee663be	-0.44997972
3	0xbef172b4	-0.47157824
4	0xbe31e8a3	-0.173739
5	0x3e6e62b3	0.23279838
6	0x3ec82ef3	0.3909832
7	0xbd10466a	-0.035223402
8	0xbeefb610	-0.4681859
9	0x3df01894	0.11723438
10	0xbe40cc43	-0.1882792
11	0xbe94046f	-0.28909633
12	0x3e99cd1e	0.30039304
13	0x3d11516c	0.03547804
14	0xbe094eaa	-0.13408914
15	0x3d815550	0.063151
16	0xbdb6ac61	-0.089195974
17	0x3e38dad0	0.1805222
18	0xbee6abb9	-0.4505289
19	0x3edee3fa	0.43533307
20	0x3d8d3d5c	0.06896469
21	0x3ebca9b3	0.3684822
22	0xbe9bd7bb	-0.30438027
23	0x3ceffb1c	0.029294543
24	0x3e264a49	0.16239275
25	0xbe889d09	-0.26682308
26	0xbe8f2e8f	-0.2796521
27	0x3e96da8c	0.29463613
28	0x3e130254	0.14356357
29	0x3ef5af29	0.479852
30	0xbef7f22a	-0.48426944
31	0x3e5c63d5	0.21522458
32	0x3ebfa649	0.37431553
33	0x3ec7c753	0.3901926
34	0x3e80d4eb	0.25162444
35	0xbe4b18b9	-0.1983365
36	0xbe8c186b	-0.2736238
37	0x3e64dab5	0.22349055
38	0x3ea1a7f6	0.31573457
39	0xbf167289	-0.58768517
40	0x3dc0a913	0.09407248
41	0xbeb8037e	-0.35940164
42	0xbe13cba4	-0.14433151
43	0xbdf29543	-0.11844876
44	0xbcfcc21c	-0.030854277
45	0x3ef37991	0.47553685
46	0x3ed1a615	0.40947023
47	0xbd511c48	-0.05105236
48	0x3e7cacff	0.24675368
49	0xbea188e3	-0.3154975
50	0xbdcca861	-0.09993053
51	0xbe0e0472	-0.13868883
52	0xbecbf301	-0.39833835
53	0x3e86eb7a	0.2635153

network.2.weight f4 [53, 54]
0	0xbd815d8a	-0.06316669
1	0xbe3e663f	-0.18593691
2	0xbc4dcd9f	-0.012561231
3	0x3f70d734	0.94078374
4	0x3de713f8	0.112831056
5	0x3e82eec9	0.25572804
6	0x3e0f4f89	0.13995184
7	0xbdc7b9e5	-0.097522534
8	0x3d6c8a90	0.05774933
9	0x3dca13d5	0.09867064
10	0xbd907428	-0.07053405
11	0x3e816d42	0.2527867
12	0x3db79027	0.08963042
13	0xbe7f1d48	-0.24913514
14	0xbe668083	-0.22509961
15	0xbd5b3f51	-0.05352718
16	0x3dc75714	0.09733406
17	0x3db4ba9d	0.08824656
18	0xbd0cbb9c	-0.034358606
19	0xbc948ebf	-0.018134473
20	0xbdf6f1ec	-0.12057862
21	0x3dbbcf09	0.09170348
22	0xbe698f6e	-0.2280862
23	0x3d8a8f8a	0.06765659
24	0x3e15fe48	0.14647782
25	0x3de74518	0.112924755
26	0xbccd9026	-0.02509315
27	0x3d47225a	0.048616745
28	0x3e1f7956	0.1557363
29	0x3df7c6bf	0.12098455
30	0xbde69932	-0.112596884
31	0xbd8d32e1	-0.0689447
32	0xbd597e29	-0.05309883
33	0x3dfca78f	0.12336647
34	0xbc83c3fe	-0.016084667
35	0xbdb036ec	-0.086042255
36	0xbd94a059	-0.072571464
37	0x3e59ac1c	0.21257061
38	0xbc102ef4	-0.008800257
39	0x3d38136d	0.0449404
40	0x3e167100	0.14691544
41	0xbe0b0493	-0.13575964
42	0xbe6e5898	-0.23275983
43	0x3d6bdf29	0.05758587
44	0x3e1bf636	0.15230641
45	0x3ea80dba	0.32822973
46	0x3e433f11	0.19067027
47	0x3d6fafaf	0.058517154
48	0xbdbd8640	-0.09254122
49	0x3df337a2	0.118758455
50	0xbe3350e9	-0.17511334
51	0xbde71c87	-0.11284738
52	0xbe1fe947	-0.15616332
53	0x3ceb4e5d	0.02872389
54	0x3e528db7	0.20561872
55	0xbe66d4c3	-0.225421
56	0xbdf9db4f	-0.12200033
57	0x3d519927	0.051171448
58	0xbe8844df	-0.26615044
59	0xbe1ea1ea	-0.15491453
60	0xbd98b7ec	-0.07456955
61	0x3e79b36b	0.24384849
62	0xbd4dbe82	-0.05023051
63	0xbe137dfa	-0.14403525
64	0xbd11f50b	-0.03563408
65	0x3c19fca2	0.009398611
66	0xbe1868ee	-0.14883777
67	0x3e1141ec	0.14185303
68	0x3e8d6ff1	0.27624467
69	0x3e8c7c11	0.27438405
70	0x3b97c54d	0.0046316744
71	0xbe50df0e	-0.20397589
72	0xbd17ec67	-0.037090685
73	0x3dbcd6a6	0.092206284
74	0x3d0c601a	0.034271337
75	0xbccd64ba	-0.025072444
76	0x3e15c027	0.14624082
77	0xbdb14511	-0.086557515
78	0x3cf2cd94	0.029639043
79	0xbe03aca9	-0.12858833
80	0x3de3385a	0.110947326
81	0xbd6e689c	-0.058205232
82	0xbdf67904	-0.12034801
83	0x3e071226	0.13190517
84	0x3e08c312	0.13355663
85	0x3deb4a13	0.11488738
86	0x3e070714	0.13186294
87	0xbe656444	-0.2240153
88	0x3e73a16d	0.23792048
89	0xbd3ccc87	-0.04609349
90	0xbe418d5e	-0.18901584
91	0xbdee3df6	-0.11632912
92	0xbe464ae1	-0.19364502
93	0xbdfe84c6	-0.12427668
94	0xbc9b4db2	-0.018957946
95	0x3d4538de	0.048149936
96	0x3dd43c3d	0.10363052
97	0xbd4a479f	-0.04938471
98	0xbdf4fdc4	-0.119624645
99	0xbe672df4	-0.22576123
100	0x3da2b039	0.07943768
101	0xbe02cc6a	-0.1277329
102	0x3d0ffa5d	0.035150874
103	0xbdb5ad44	-0.088709384
104	0xbe592e62	-0.212091
105	0xbe5c1c0f	-0.21495079
106	0xbe39f888	-0.18161213
107	0x3e2285cd	0.15871353
108	0x3dfabac9	0.12242658
109	0xbe50476c	-0.20339745
110	0xbd7bf2b8	-0.06151077
111	0xbcb185b4	-0.0216702
112	0xbe85a903	-0.26105508
113	0xbdd43c08	-0.103630126
114	0xbdbcdc55	-0.092217125
115	0xbd5a8c76	-0.05335661
116	0xbe84d103	-0.25940713
117	0xbde81dbd	-0.11333797
118	0xbd5ec084	-0.054382816
119	0xbbff1720	-0.007784739
120	0xbe52aa83	-0.20572858
121	0x3d3f9f2b	0.046782654
122	0xbd35aa57	-0.0443519
123	0xbe462817	-0.1935123
124	0x3e0702a9	0.13184609
125	0xbe8cf160	-0.27527905
126	0xbe230cdc	-0.15922874
127	0x3e539654	0.20662814
128	0x3d522f6b	0.051314753
129	0xbddae023	-0.10687282
130	0xbd8c6a49	-0.0685621
131	0x3ce128e9	0.027485328
132	0xbe5ca624	-0.21547753
133	0xbe44c346	-0.19215116
134	0xbd57a438	-0.052646846
135	0xbe1b783e	-0.15182588
136	0xbe985c0b	-0.29757723
137	0xbdc94d6a	-0.09829219
138	0x3c2835af	0.010266705
139	0xbd8a710f	-0.067598455
140	0x3d31646f	0.04330867
141	0xbdf45b11	-0.11931432
142	0xbdfbd396	-0.12296216
143	0xbe51cf35	-0.204892
144	0xbe1268ab	-0.1429774
145	0xbe89c832	-0.2691055
146	0xbe0b1339	-0.13581552
147	0xbdace15d	-0.08441422
148	0xbe94ac8b	-0.2903789
149	0x3d5b0620	0.053472638
150	0x3c4067ed	0.011743528
151	0xbddd4527	-0.108042054
152	0xbe412d4d	-0.18864937
153	0xbe10ad95	-0.14128716
154	0xbdc4395b	-0.09581252
155	0xbd8b3159	-0.06796522
156	0xbd878422	-0.06616999
157	0x3d7d03c5	0.061771173
158	0xbdb1b0ff	-0.086763375
159	0xbe05848e	-0.13038847
160	0xbe4faeca	-0.2028152
161	0xbd935a66	-0.071949765
162	0xbe2abd43	-0.1667376
163	0xbe816322	-0.25270945
164	0xbe5d3d6e	-0.21605465
165	0x3ec35fa9	0.3815892
166	0xbeec6732	-0.46172482
167	0xbe3ba160	-0.18323278
168	0x3da38472	0.07984246
169	0xbe82bb0f	-0.2553334
170	0xbb1d1963	-0.002397143
171	0x3d2bb6cd	0.04192238
172	0xbc8fa9be	-0.017536994
173	0x3ea4aa55	0.32161203
174	0x3e7b9157	0.24567162
175	0xbe0b9fe0	-0.13635206
176	0xbe3428f0	-0.17593741
177	0xbda059c3	-0.07829621
178	0x3e451626	0.1924673
179	0x3d285dc6	0.041105054
180	0xbe0a98a9	-0.13534798
181	0x3de8ee0a	0.11373527
182	0x3cd0d7ff	0.02549362
183	0x3e5c1dd0	0.21495748
184	0xbe69b548	-0.2282306
185	0x3d44f4a3	0.048084866
186	0xbe19d85f	-0.15023945
187	0xbe40fc97	-0.18846355
188	0xbea13e1e	-0.31492704
189	0xbc9d24cf	-0.01918259
190	0xbe186686	-0.1488286
191	0x3e5f1b8f	0.21787857
192	0x3e2f164e	0.17098352
193	0xbdc30360	-0.09522128
194	0xbe607492	-0.21919468
195	0x3e47f9eb	0.1952893
196	0xbda3460b	-0.07972344
197	0xbc7614c6	-0.015019601
198	0xbd201b6a	-0.039088644
199	0xbde3dfa7	-0.11126643
200	0xbe5f7890	-0.21823335
201	0xbc94ebfd	-0.018178934
202	0xbe4517e8	-0.19247401
203	0xbd08b342	-0.03337408
204	0x3db11e26	0.086483285
205	0xbe33eb74	-0.17570287
206	0xbc15215c	-0.009102192
207	0x3ea9566c	0.33073747
208	0xbd13c38c	-0.03607516
209	0x3dd25365	0.102698125
210	0x3d0c783d	0.034294356
211	0xbd8c13e9	-0.06839735
212	0x3deeeb8b	0.1166602
213	0xbe952443	-0.29129228
214	0xbe98aeaf	-0.29820773
215	0xbe390fc7	-0.18072425
216	0xbe86bede	-0.26317495
217	0xbe21c483	-0.1579762
218	0xbe36a656	-0.1783689
219	0x3e53204f	0.20617794
220	0x3d78df3e	0.060759775
221	0x3e997e46	0.2997915
222	0x3d8f1714	0.06986824
223	0xbd67ed92	-0.05662305
224	0xbdd89dd0	-0.10576975
225	0x3e4ad31e	0.19807097
226	0xbd8fc948	-0.07020813
227	0xbb86ddce	-0.0041157966
228	0x3d74a59a	0.059728242
229	0xbdd2094d	-0.1025568
230	0xbe5d17e6	-0.21591148
231	0x3e5aa455	0.2135175
232	0xbe3fc14b	-0.18726079
233	0xbd810943	-0.06300595
234	0xbe6f0727	-0.23342572
235	0xbe1fda59	-0.15610637
236	0xbd9cfaf6	-0.076650545
237	0xbdd2b103	-0.102876686
238	0xbda34773	-0.07972612
239	0xbea694bb	-0.32535347
240	0xbd50e5a4	-0.051000252
241	0x3ba11042	0.004915268
242	0x3ceab15a	0.028649021
243	0x3eb839b7	0.35981533
244	0x3d597cca	0.053097524
245	0xbd2d90eb	-0.042374533
246	0xbdac79d1	-0.08421672
247	0xbbe20a87	-0.0068982276
248	0x3e76d561	0.24104835
249	0x3d5ef5ec	0.054433748
250	0x3e4e6ddc	0.20159096
251	0xbe4ac106	-0.19800195
252	0xbdd9549a	-0.106118396
253	0xbdbae174	-0.09125033
254	0xbc317e80	-0.010833383
255	0xbe9e4cc4	-0.30917943

network.2.bias f4 [53]
0	0x3ebba423	0.36648664
1	0xbd96f4fd	-0.073709466
2	0x3b93a655	0.0045059123
3	0x3e8a05c5	0.26957527
4	0x3d625da4	0.055265084
5	0x3e0ab680	0.1354618
6	0x3e090607	0.13381205
7	0xbdc0a447	-0.094063334
8	0x3ce0fce7	0.027464343
9	0xbe92aa76	-0.28645676
10	0xbde34c13	-0.110984944
11	0x3dccc2c1	0.09998084
12	0xbe52a03c	-0.20568937
13	0xbe78e749	-0.24306978
14	0x3d46c571	0.04852814
15	0xbd7eb642	-0.062185533
16	0x3db39cfd	0.087701775
17	0x3e6899df	0.22714947
18	0xbe406954	-0.1879018
19	0x3d53a157	0.051667538
20	0xbc8afdf3	-0.016966796
21	0xbdb983b0	-0.090583205
22	0x3cd05f52	0.025436077
23	0x3c67574b	0.014119933
24	0xbe607734	-0.21920472
25	0x3e7f5d7e	0.24938008
26	0x3e304d36	0.17216954
27	0xbe17965c	-0.14803451
28	0x3e4cb86c	0.19992226
29	0x3ea456e9	0.32097557
30	0xbe6bdb03	-0.23032765
31	0xbe1c3413	-0.1525424
32	0x3e137174	0.14398748
33	0x3d37a39d	0.04483377
34	0x3d9a9222	0.07547404
35	0x3e93d4e2	0.28873354
36	0xbdbf6875	-0.093460955
37	0xbec323da	-0.3811329
38	0x3e425d90	0.18981004
39	0x3caab39d	0.0208376
40	0xbd6136fe	-0.054984085
41	0x3b542b62	0.003237449
42	0x3e537248	0.20649064
43	0x3d3a4b29	0.045481835
44	0x3d9088fb	0.07057377
45	0x3ddbd22c	0.107334465
46	0xbcb6aaaf	-0.022298185
47	0xbb752a2a	-0.0037409165
48	0xbdf797eb	-0.12089523
49	0xbe17dd2d	-0.14830466
50	0x3ddb04ef	0.106943004
51	0xbdc85c76	-0.097832605
52	0xbd375be8	-0.044765383

network.4.weight f4 [2, 53]
0	0xbda822b0	-0.08209741
1	0x3d90c9d4	0.07069746
2	0xbd86920b	-0.06570824
3	0x3e8d2458	0.2756679
4	0xbe6cf123	-0.23138861
5	0xbdeb9964	-0.11503866
6	0x3e8dbf62	0.27685076
7	0x3dea2fa3	0.11434867
8	0x3da2958b	0.07938679
9	0xbd221aa9	-0.039576206
10	0xbd94c5c1	-0.07264281
11	0xbdc4f100	-0.096162796
12	0xbe44d4a8	-0.19221747
13	0xbe5328a8	-0.20620978
14	0x3d29177b	0.04128216
15	0x3e11201f	0.1417241
16	0x3e1ac7c9	0.15115274
17	0x3e617c4f	0.22020076
18	0x3d61b9fc	0.05510901
19	0x3d72ebfc	0.059307083
20	0x3e11bcc3	0.14232163
21	0xbe07eb26	-0.13273296
22	0x3e36458f	0.17799972
23	0x3e030124	0.12793404
24	0xbe50239f	-0.20326088
25	0xbe382dec	-0.17986268
26	0x3dbfdc0d	0.09368143
27	0x3c5410e1	0.012943477
28	0xba5edaa5	-0.00085012085
29	0xbe221ec4	-0.15832049
30	0xbddbde4e	-0.10735761
31	0xbe5f7a45	-0.21823986
32	0xbe6988a0	-0.22806025
33	0x3c2cb2ce	0.010540677
34	0x3d917a72	0.07103433
35	0xbda6afe5	-0.08139018
36	0xbd7a8691	-0.06116349
37	0x3e1f3a0c	0.15549487
38	0x3cf948c2	0.030430201
39	0x3e2189fc	0.15775293
40	0xbce08f24	-0.027412005
41	0x3dd55707	0.1041699
42	0xbe1715a5	-0.1475435
43	0x3e067f4b	0.13134496
44	0x3d6bd247	0.057573583
45	0x3e3d8720	0.18508577
46	0x3e214b46	0.15751371
47	0x3e018116	0.12646899
48	0x3e00bd4f	0.12572215
49	0x3c0388ad	0.0080281915
50	0x3dc4f508	0.096170485
51	0x3daee2ad	0.08539329
52	0xbca924ba	-0.020647395
53	0xbe2b51c4	-0.1673041
54	0x3d457aef	0.04821294
55	0xbdbeb27e	-0.093113884
56	0xbd0dca34	-0.034616664
57	0xbb347bda	-0.0027539642
58	0x3e041149	0.12897219
59	0x3d02653a	0.03183482
60	0x3cf41397	0.029794497
61	0x3e096a46	0.13419446
62	0xbcb88a2a	-0.02252682
63	0x3d94def6	0.07269089
64	0xbd03cc5c	-0.032177314
65	0xbd15e22c	-0.036592647
66	0xbcaed4de	-0.021341737
67	0xbd6a6728	-0.057227284
68	0xbcb4b6f8	-0.022059903
69	0xbd0693bd	-0.032855738
70	0xbd92d0e7	-0.07168751
71	0x3d46619c	0.04843293
72	0x3d2243ee	0.039615564
73	0xbbb22dbf	-0.0054375823
74	0xbddeb61e	-0.1087458
75	0x3e5e55cb	0.21712415
76	0x3e033fc5	0.12817295
77	0xbd8a2f74	-0.06747332
78	0xbe0edeeb	-0.13952224
79	0xbdbd2df2	-0.09237279
80	0xbdaaad77	-0.08333867
81	0xbd7c99c2	-0.061670072
82	0xbe2d5215	-0.16925843
83	0xbd70d6a5	-0.05879845
84	0xbdda51ce	-0.10660134
85	0x3d30647d	0.043064583
86	0x3e37fd59	0.17967738
87	0xbdff843c	-0.124763936
88	0xbe08aa96	-0.13346323
89	0xbd601cd1	-0.05471498
90	0x3e8e937f	0.27846906
91	0xbe884f9d	-0.2662324
92	0x3d833062	0.06405713
93	0x3d83b75e	0.06431459
94	0x3d315a74	0.043299153
95	0xbe8a1e0a	-0.26976043
96	0x3d84bba9	0.06481106
97	0x3d8c18eb	0.0684069
98	0x3e2c206e	0.16809246
99	0x3cfc4342	0.03079379
100	0xbeb6d4d5	-0.35709253
101	0x3ca892ab	0.02057775
102	0xbd457fad	-0.048217464
103	0x3cbea966	0.023274135
104	0x3e396309	0.18104185
105	0xbc1ee652	-0.009698467

network.4.bias f4 [2]
0	0xbe53e9dd	-0.2069468
1	0xbdf51583	-0.11966994
