torch_mlp_deepshap/splits/3/model.pt (torch, 13437 bytes, 6 tensors)

network.0.weight f4 [41, 6]
-0.08320814 0.18920982 0.032569747 0.30782476 0.2466138 0.22878775 -0.10275902 -0.39746788
-0.11525753 -0.27976063 0.013608487 -0.1948603 0.34983316 0.45190033 -0.107110046 0.056563865
-0.21185441 -0.40602496 -0.23967068 -0.32103452 0.28066424 -0.2361457 0.09906152 0.11516355
0.008699188 -0.32626545 0.23412146 0.1854885 0.3251904 0.3963304 -0.04265783 -0.34654552
-0.27018127 -0.21996154 0.2305718 0.09960857 -0.3162252 -0.08168383 -0.042244002 -0.08165388
-0.24606667 -0.29103953 -0.064806245 -0.13683072 -0.48439255 -0.025473984 0.01523607 -0.114265546
0.094639786 0.39748988 0.019542424 0.261476 0.2615061 -0.6158482 -0.3114807 0.1021297
-0.065721 0.20129004 -0.26469195 -0.35692373 -0.32029402 -0.044081323 -0.15695281 0.090425454
-0.012225909 -0.1180869 0.20134118 -0.3088395 -0.077597104 0.36416784 -0.282219 -0.14154293
-0.33774307 0.15726203 -0.13244559 0.17395055 -0.4330812 -0.14265235 0.33194596 0.3655151
-0.29892603 0.27285853 0.13675946 0.32414272 0.15756729 -0.3624898 -0.20741852 -0.20448656
0.35439745 -0.25841278 0.030611904 0.2357552 0.4905823 -0.45605657 -0.0021248113 0.34379658
-0.15203097 -0.39376003 -0.1625423 0.6094986 0.360193 -0.18842037 -0.21647635 0.14963849
0.06708097 0.48511583 -0.16636369 0.35238025 0.27149707 -0.45213223 0.29896605 -0.017490974
0.32154357 0.39563322 -0.22649759 0.49801815 0.22389385 -0.11596784 0.027346771 0.3896431
-0.24787362 0.43292502 0.1978357 0.31439665 -0.085667126 0.5553002 0.39832094 -0.055705298
-0.036104895 0.46539447 0.14509256 0.37561837 -0.26583079 -0.1285624 -0.19804303 0.19917297
-0.050068606 -0.17530176 -0.06560939 0.3309157 0.057466358 0.122353375 0.20469522 0.31374666
0.1690346 0.23729523 0.295873 0.16025744 0.41957128 -0.32295245 0.2756419 -0.29689795
-0.087999836 -0.15486422 -0.08733825 0.029574102 0.32634333 0.31263563 0.27295628 -0.13674791
-0.009910616 0.14919177 0.250988 0.18626407 0.077354096 -0.12549247 -0.31967488 -0.5478206
-0.14927758 0.09502151 0.09795777 -0.11937358 0.20389196 -0.25142246 0.26840326 -0.0300217
-0.07931635 -0.18013291 0.29401323 -0.2879816 -0.23652884 -0.31778997 -0.26373821 0.30810738
-0.15086736 0.18331926 0.13459761 0.42545977 -0.21083356 -0.36264104 -0.36148435 -0.05999958
-0.019805433 -0.10617094 0.48723337 -0.22781126 -0.05014266 -0.45217502 0.08329182 0.3487867
-0.21986106 -0.16548996 -0.13164452 -0.06337919 -0.037212104 0.28084153 0.21487023 -0.30218622
-0.208507 0.087816626 0.22551183 0.25602067 0.23715186 0.34063086 0.29006395 0.4135735
0.19644438 0.34606043 -0.21609941 0.3177996 -0.34269926 0.31942824 -0.065669335 0.37431002
0.14165749 0.082662456 -0.20893225 0.08225014 -0.34280217 0.15389165 -0.04065676 0.28129756
0.04549103 0.34236413 -0.17893086 0.046873875 0.2663312 0.24641685 0.054414634 -0.06945929
0.006786257 0.36796454 0.11556077 -0.49028808 -0.1512136 0.059314314
00000000: 0869 aabd 38c0 413e db67 053d 359b 9d3e
00000010: 5488 7c3e 5647 6a3e 5273 d2bd e980 cbbe
00000020: 240c ecbd c93c 8fbe 22f6 5e3c 7589 47be
00000030: 551d b33e 7b5f e73e 835c dbbd 83af 673d
00000040: 5df0 58be 81e2 cfbe 3b6c 75be a35e a4be
00000050: 39b3 8f3e 2ed0 71be c4e0 ca3d deda eb3d
00000060: 0a87 0e3c 440c a7be 89bd 6f3e b3f0 3d3e
00000070: 5b7f a63e d1eb ca3e fab9 2ebd 6a6e b1be
00000080: 3355 8abe 993d 61be 041b 6c3e 94ff cb3d
00000090: 45e8 a1be da49 a7bd 0c08 2dbd 263a a7bd
000000a0: e7f8 7bbe 2203 95be 23b9 84bd 5a1d 0cbe
000000b0: 4d02 f8be d1ae d0bc b6a0 793c 0e04 eabd
000000c0: 81d2 c13d cb83 cb3e 6f17 a03c 2fe0 853e
000000d0: 21e4 853e 3aa8 1dbf 667a 9fbe 6029 d13d
000000e0: bb98 86bd fa1e 4e3e b485 87be b5be b6be
000000f0: 94fd a3be 9e8e 34bd 3db8 20be fb30 b93d
00000100: 2e4f 48bc 8bd7 f1bd 622c 4e3e 3620 9ebe
00000110: 3beb 9ebd 3574 ba3e 027f 90be a1f0 10be
00000120: a9ec acbe 4c09 213e d19f 07be 1820 323e
00000130: d2bc ddbe 7513 12be d2f4 a93e cc24 bb3e
00000140: d50c 99be 1db4 8b3e ac0a 0c3e 09f6 a53e
00000150: 5259 213e 4398 b9be 8565 54be ed64 51be
00000160: 9573 b53e ae4e 84be d1c5 fa3c d069 713e
00000170: 9a2d fb3e 3f80 e9be 6b40 0bbb 1b06 b03e
00000180: 02ae 1bbe ea9a c9be 7d71 26be 1a08 1c3f
00000190: 386b b83e 45f1 40be faab 5dbe d53a 193e
000001a0: bf61 893d 1a61 f83e 3e5b 2abe 2f6b b43e
000001b0: aa01 8b3e e07d e7be 1412 993e 3b49 8fbc
000001c0: 5ca1 a43e 7090 ca3e fcee 67be 3cfc fe3e
000001d0: 6e44 653e 8c80 edbd 5606 e03c 4d7f c73e
000001e0: 95d2 7dbe 59a8 dd3e 7195 4a3e 99f8 a03e
000001f0: 3f72 afbd 2728 0e3f b9f0 cb3e 3d2b 64bd
00000200: bae2 13bd 2f48 ee3e 2593 143e 0d51 c03e
00000210: f91a 88be dda5 03be cbcb 4abe 00f4 4b3e
00000220: bd14 4dbd 4e82 33be 375e 86bd c86d a93e
00000230: d861 6b3d 6894 fa3d a09b 513e 67a3 a03e
00000240: 6817 2d3e 85fd 723e aa7c 973e 871a 243e
00000250: 0cd2 d63e 065a a5be ef20 8d3e 0203 98be
00000260: 4239 b4bd ba94 1ebe 65de b2bd 6345 f23c
00000270: 7916 a73e c711 a03e edc0 8b3e a507 0cbe
00000280: 2360 22bc bac5 183e 8081 803e 02bc 3e3e
00000290: d36b 9e3d 1981 00be 6dac a3be f93d 0cbf
000002a0: 39dc 18be a39a c23d 159e c83d 237a f4bd
000002b0: 0ec9 503e 72ba 80be 276c 893e 11f0 f5bc
000002c0: 9c70 a2bd c374 38be e788 963e 5372 93be
000002d0: 9e34 72be 5eb5 a2be b208 87be 40c0 9d3e
000002e0: f97c 1abe 0bb8 3b3e f5d3 093e ddd5 d93e
000002f0: c1e4 57be 16ac b9be 7a14 b9be 1fc2 75bd
00000300: 013f a2bc 2670 d9bd a776 f93e 5b47 69be
00000310: 6462 4dbd 7c83 e7be e794 aa3d 2c94 b23e
00000320: 4223 61be 3376 29be d2cd 06be f3cc 81bd
00000330: b86b 18bd 76ca 8f3e f106 5c3e 27b8 9abe
00000340: dc82 55be 34d9 b33d 93ec 663e 2415 833e
00000350: f0d7 723e 2b67 ae3e 4383 943e e8bf d33e
00000360: b728 493e d52e b13e 2a49 5dbe a1b6 a23e
00000370: 4776 afbe 198c a33e a57d 86bd 90a5 bf3e
00000380: a90e 113e ef4a a93d 56f2 55be c372 a83d
00000390: c483 afbe c695 1d3e b487 26bd 3c06 903e
000003a0: cd54 3a3d 5a4a af3e a739 37be d2fe 3f3d
000003b0: 905c 883e b354 7c3e e1e1 5e3d ac40 8ebd
000003c0: 405f de3b d965 bc3e 20ab ec3d 0a07 fbbe
000003d0: bdd7 1abe 91f3 723d

network.0.bias f4 [41]
0.1550548 0.27013654 0.487625 -0.054620143 0.32344547 -0.23045021 0.36317918 0.18406054
0.31009156 -0.10711141 0.22238372 0.3985991 -0.036143214 -0.19205898 -0.42983773 -0.0804908
-0.15538335 0.16349712 -0.16826366 -0.07349624 -0.043811582 0.3926345 -0.34891072 0.13800864
-0.10939436 -0.08485556 -0.04487273 -0.3357951 0.40544963 0.35579935 -0.3854497 0.4715241
0.11321944 0.15973653 0.1640942 -0.2965201 0.43915045 0.1267702 0.4574748 0.010385854
0.107998975
00000000: afc6 1e3e 564f 8a3e fca9 f93e 5fb9 5fbd
00000010: a59a a53e 24fb 6bbe 9ff2 b93e 5e7a 3c3e
00000020: 52c4 9e3e 3a5d dbbd 8fb8 633e 2e15 cc3e
00000030: e80a 14bd 1cab 44be b113 dcbe 5cd8 a4bd
00000040: d01c 1fbe ca6b 273e 4f4d 2cbe 3285 96bd
00000050: c673 33bd 6407 c93e 6da4 b2be 2352 0d3e
00000060: 260a e0bd c0c8 adbd 78cc 37bd 56ed abbe
00000070: 1897 cf3e 552b b63e aa59 c5be 9b6b f13e
00000080: 98df e73d f991 233e 4f08 283e 7cd1 97be
00000090: 54d8 e03e 0cd0 013e 233a ea3e 6e29 2a3c
000000a0: 912e dd3d

network.2.weight f4 [53, 41]
-0.0406426 0.0072220857 0.17835149 0.080586985 0.032940604 -0.07151578 0.11345277 0.041117646
-0.0134944655 -0.06353854 0.10306423 0.26975617 0.009000515 0.10882831 -0.041029207 -0.08361807
0.08279092 0.11983257 -0.024569955 -0.036900286 0.14707929 0.01653737 -0.20282406 0.0941201
0.032605596 -0.011049538 0.03348596 0.28503707 0.1012207 0.07411346 -0.3049063 0.17861511
-0.027393742 0.16958965 0.069382966 -0.011205737 0.06448379 0.023586955 0.1668915 0.071689904
0.15968814 -0.10630938 0.11025634 0.13117617 -0.020015838 -0.12008241 0.06559656 0.18598217
0.04317019 -0.016083261 0.11605805 -0.029877506 0.115439735 -0.062239744 -0.19864164 -0.12640399
0.029425757 0.3029774 -0.020630278 0.06298891 -0.17724063 -0.23651889 0.124866374 -0.010828586
-0.00031671402 -0.06359974 -0.10503823 0.20577303 0.49221462 0.11625476 -0.009813866 -0.08819936
0.034368094 -0.036986195 0.13398592 -0.028694427 -0.13722941 0.005151683 -0.09552734 -0.055264004
-0.21409085 -0.0150556825 -0.12824793 0.0033016428 0.12275348 -0.080854215 0.03152553 -0.14107549
0.07345488 0.08391681 0.13084926 0.032578595 0.10904528 0.23888592 -0.0889131 -0.080792464
-0.022332497 0.064325206 0.374177 -0.06349104 0.10217253 -0.17811403 -0.24467504 -0.13999785
-0.11926151 0.03680679 0.016292991 0.06524532 0.063761234 0.43215218 0.041744214 0.0028308877
-0.1350539 0.2753577 -0.036195282 -0.010657894 0.09175723 -0.054379925 0.002085694 -0.23922539
0.0025832178 -0.066645674 0.03618535 0.14890568 -0.21681772 0.26847875 -0.10341756 -0.079861745
-0.055839546 -0.015571512 -0.06673451 0.16823876 -0.034303773 0.018827159 0.13195343 0.093575954
0.041712057 -0.16005802 -0.09594335 0.017741445 0.07662086 0.025264772 -0.008116906 0.047353756
0.03430175 -0.23198271 0.061436355 0.10343037 -0.091338426 -0.07075371 0.087755494 -0.104274385
-0.078901276 -0.15255634 0.0781281 -0.083777204 0.08419246 0.09526798 -0.033089925 0.111941755
0.14709063 0.07404729 0.04453875 -0.046464875 0.104969084 0.05404035 0.26462722 -0.17871279
-0.051948607 -0.15893993 -0.014466118 0.121884055 -0.08958724 -0.11325589 0.11004671 0.029259007
0.05870229 0.0069697737 -0.018487405 0.050816137 0.26521218 -0.08293094 0.059551448 -0.12395178
-0.14495955 0.016223155 -0.16445741 -0.0695611 0.12592188 -0.034260314 0.04803243 0.49657267
-0.032432478 0.09588236 -0.19619751 0.16309012 -0.078647785 0.13853455 0.1629622 -0.08891439
0.13465889 -0.18743214 0.013172946 -0.013407952 0.19066204 0.15499006 0.081080675 0.07826625
0.016512047 -0.015985904 0.040615804 -0.13619727 0.019230796 0.21423343 -0.16982459 -0.12103046
-0.072916694 -0.10830594 -0.03475393 -0.1359545 -0.070766695 -0.034516282 0.03420742 0.08827396
0.20503746 0.23810115 0.22790302 0.087579936 0.13530508 0.14417394 -0.08310634 0.17519097
-0.16151382 -0.084220886 -0.038422376 -0.070586115 0.027586726 -0.009149457 0.117138304 0.08782053
0.020081472 0.1107309 0.19716413 0.18505692 0.2067842 0.04924453 0.10098697 0.009184171
0.044888683 0.07021167 -0.06757759 -0.13852215 -0.022216782 0.1072969 0.022748582 0.12762968
00000000: db78 26bd 3fa7 ec3b c6a1 363e ca0a a53d
00000010: baec 063d de76 92bd ed59 e83d fa6a 283d
00000020: e417 5dbc 7e20 82bd 5713 d33d 7b1d 8a3e
00000030: e576 133c 61e1 de3d 3e0e 28bd f33f abbd
00000040: 498e a93d c76a f53d ee46 c9bc c124 17bd
00000050: f49b 163e 6179 873c 1cb1 4fbe 0ac2 c03d
00000060: 728d 053d 1f09 35bc 9328 093d 61f0 913e
00000070: cc4c cf3d ccc8 973d ae1c 9cbe e1e6 363e
00000080: d768 e0bc e9a8 2d3e a818 8e3d 4498 37bc
00000090: 1410 843d 6e39 c13c 9be5 2a3e 28d2 923d
000000a0: 4a85 233e bbb8 d9bd 13ce e13d 0c53 063e
000000b0: 41f8 a3bc c4ed f5bd 7d57 863d 1c72 3e3e
000000c0: 3ad3 303d 0bc1 83bc d8af ed3d acc1 f4bc
000000d0: ab6b ec3d 1aef 7ebd b768 4bbe 0c70 01be
000000e0: 490e f13c db1f 9b3e d400 a9bc 5400 813d
000000f0: 917e 35be 0232 72be f1b9 ff3d 626a 31bc
00000100: a30c a6b9 9540 82bd 491e d7bd 2ab6 523e
00000110: 8e03 fc3e fa16 ee3d 56ca 20bc dea1 b4bd
00000120: 8fc5 0c3d d67e 17bd 9b33 093e 9310 ebbc
00000130: de85 0cbe 73cf a83b d7a3 c3bd 825c 62bd
00000140: a23a 5bbe 1cac 76bc 6d53 03be 6060 583b
00000150: 2d66 fb3d e596 a5bd ea20 013d 1876 10be
00000160: 836f 963d 94dc ab3d 59fd 053e 2271 053d
00000170: 2253 df3d 839e 743e 1218 b6bd 8576 a5bd
00000180: a4f2 b6bc efbc 833d 2194 bf3e 9707 82bd
00000190: d53f d13d 8663 36be 188c 7abe 995b 0fbe
000001a0: 613f f4bd b7c2 163d e178 853c 579f 853d
000001b0: 4095 823d 0d43 dd3e fbfb 2a3d 6a86 393b
000001c0: 924b 0abe affb 8c3e 8141 14bd 739e 2ebc
000001d0: 37eb bb3d 7cbd 5ebd 24b0 083b 80f7 74be
000001e0: 344b 293b 877d 88bd 1737 143d bb7a 183e
000001f0: 7705 5ebe 0c76 893e 96cc d3bd 8e8e a3bd
00000200: 02b8 64bd a81f 7fbc 1aac 88bd c846 2c3e
00000210: 1d82 0cbd 6a3b 9a3c cd1e 073e c0a4 bf3d
00000220: 43da 2a3d 40e6 23be f27d c4bd 8256 913c
00000230: 66eb 9c3d 11f8 ce3c c5fc 04bc 03f6 413d
00000240: fe7f 0c3d e08c 6dbe b0a4 7b3d 4dd3 d33d
00000250: a40f bbbd 52e7 90bd 27b9 b33d cf8d d5bd
00000260: fe96 a1bd bb37 1cbe a001 a03d 6293 abbd
00000270: 196d ac3d dc1b c33d 4d89 07bd b841 e53d
00000280: ed9e 163e 1ba6 973d 446e 363d f451 3ebd
00000290: 08fa d63d 6a59 5d3d 387d 873e 7c00 37be
000002a0: 10c8 54bd 26c1 22be 4c03 6dbc 599e f93d
000002b0: 8479 b7bd b4f2 e7bd 2b60 e13d 96b0 ef3c
000002c0: d071 703d b362 e43b e672 97bc 9524 503d
000002d0: e4c9 873e b2d7 a9bd 38ec 733d 6eda fdbd
000002e0: 4770 14be 6ce6 843c 8667 28be 0d76 8ebd
000002f0: aaf1 003e 8b54 0cbd a7bd 443d c63e fe3e
00000300: ebd7 04bd f95d c43d 00e8 48be 1901 273e
00000310: 1712 a1bd 00dc 0d3e 90df 263e bf18 b6bd
00000320: 05e4 093e 36ee 3fbe 57d3 573c 07ad 5bbc
00000330: e93c 433e b7b5 1e3e a00d a63d 0e4a a03d
00000340: 4644 873c dff4 82bc c25c 263d 4c77 0bbe
00000350: e789 9d3c 0260 5b3e 7fe6 2dbe d1de f7bd
00000360: 5955 95bd 81cf ddbd 235a 0ebd a837 0bbe
00000370: 21ee 90bd f260 0dbd 141d 0c3d fac8 b43d
00000380: 57f5 513e cad0 733e 695f 693e 1c5d b33d
00000390: 6a8d 0a3e 55a2 133e a833 aabd 4365 333e
000003a0: e163 25be 007c acbd c860 1dbd 748f 90bd
000003b0: 8ffd e13c 9be7 15bc 35e6 ef3d 40db b33d
000003c0: e681 a43c e2c6 e23d 65e5 493e 907f 3d3e
000003d0: 3dbf 533e a2b4 493d 42d2 ce3d 3579 163c
000003e0: 32dd 373d 23cb 8f3d 1f66 8abd c0d8 0dbe
000003f0: f8ff b5bc 7abe db3d 3c5b ba3c 5bb1 023e

network.2.bias f4 [53]
0.062497243 0.25103572 0.19607975 0.08317136 0.229063 0.080210455 0.24800092 0.19927105
0.04802352 -0.08441036 -0.0060941963 -0.06514278 -0.03089481 0.23436984 0.07919657 -0.009687055
0.09418345 0.09084467 0.14974265 0.07567693 0.02629665 -0.29674828 0.09023905 0.12592061
0.22942014 -0.042420726 0.05246991 0.022884715 0.05539198 0.03393615 0.08929808 0.09463186
0.16645479 -0.06408375 -0.078188755 -0.0129054 -0.059064306 -0.14315994 0.11746663 0.22762628
0.039653346 -0.10650501 -0.09430107 -0.21216187 0.12957896 0.10666139 0.14620455 0.050035886
-0.051901016 7.671743e-07 0.016464181 -0.044231176 -0.027702948
00000000: 1cfd 7f3d c187 803e 21c9 483e bf55 aa3d
00000010: 7e8f 6a3e 6145 a43d f4f3 7d3e b60d 4c3e
00000020: 4fb4 443d 57df acbd d3b1 c7bb 9469 85bd
00000030: 1d17 fdbc a6fe 6f3e d031 a23d 74b6 1ebc
00000040: 41e3 c03d c50c ba3d 2356 193e 82fc 9a3d
00000050: 126c d73c 64ef 97be 40cf b83d 55f1 003e
00000060: 1ded 6a3e 5bc1 2dbd b0ea 563d ba78 bb3c
00000070: b3e2 623d a200 0b3d e9e1 b63d 59ce c13d
00000080: 2073 2a3e 573e 83bd 6d21 a0bd 2c71 53bc
00000090: 6aed 71bd 8598 12be 5892 f03d dd16 693e
000000a0: 8c6b 223d 4c1f dabd eb20 c1bd f640 59be
000000b0: 59b0 043e 4971 da3d a5b6 153e 6ef2 4c3d
000000c0: 2996 54bd d1ef 4d35 e4df 863c c02b 35bd
000000d0: 4bf1 e2bc

network.4.weight f4 [2, 53]
-0.245339 -0.14795533 -0.16189691 -0.12829916 -0.15819551 0.18849388 -0.23534608 0.05334702
0.028639598 -0.05444677 0.12951279 0.103536494 0.0758253 -0.18548772 0.22617726 0.01908695
0.034027338 0.13687424 0.15541108 -0.063401245 0.1399501 0.44109747 -0.120177485 -0.26115328
-0.2604357 0.05080152 0.033060007 0.575828 0.15000199 -0.15371065 0.106026776 0.16469342
-0.119086325 0.027570052 -0.00509971 0.14662279 0.050480954 0.06880337 -0.16683684 0.12620144
0.13128501 0.054069344 0.23333578 -0.08689255 -0.09378635 0.13809395 -0.072880484 0.07467559
0.09139827 -4.2622568e-07 0.5826055 -0.07594189 -0.110703535 -0.020207755 -0.23382379 -0.23130977
0.2162034 -0.16105196 0.1544375 0.019066812 -0.22132196 0.0022888086 -0.06156054 -0.2121969
0.15064755 0.16047877 -0.14017373 0.3331135 0.020827744 -0.29030427 0.12308647 -0.26856807
0.12726398 0.21766782 -0.03078654 -0.046012145 -0.09219285 -0.20799072 0.054065987 0.23988529
0.52662563 -0.22195786 -0.1751007 0.20164062 0.5746226 -0.17387885 -0.0020353948 0.031299412
0.09600722 -0.06381397 -0.059479274 -0.031423762 -0.17110129 -0.12448641 -0.010377261 0.2332212
-0.03632227 0.053402387 0.16020332 -0.19060145 0.16668397 0.085616566 -2.7424375e-07 -0.22425751
-0.19348705 0.200013
00000000: 263a 7bbe 9a81 17be 4ec8 25be db60 03be
00000010: 01fe 21be 8a04 413e 90fe 70be 6882 5a3d
00000020: 979d ea3c 9403 5fbd 009f 043e f10a d43d
00000030: 4b4a 9b3d 7ef0 3dbe 039b 673e 3c5c 9c3c
00000040: 4060 0b3d c328 0c3e 1524 1f3e 83d8 81bd
00000050: 144f 0f3e 87d7 e13e 9d1f f6bd e2b5 85be
00000060: d457 85be 4115 503d ee69 073d 7769 133f
00000070: 1f9a 193e 5366 1dbe 9124 d93d 64a5 283e
00000080: 88e3 f3bd 97da e13c 781b a7bb 4924 163e
00000090: 1ec5 4e3d c8e8 8c3d 47d7 2abe f33a 013e
000000a0: 946f 063e d177 5d3d 93ef 6e3e b9f4 b1bd
000000b0: 0f13 c0bd 8068 0d3e 5d42 95bd 84ef 983d
000000c0: 042f bb3d 03d4 e4b4 a225 153f 6c87 9bbd
000000d0: 89b8 e2bd bc8a a5bc 816f 6fbe 78dc 6cbe
000000e0: 6d64 5d3e ceea 24be dd24 1e3e 0132 9c3c
000000f0: 39a2 62be d6ff 153b e826 7cbd 254a 59be
00000100: 5a43 1a3e 8c54 243e b489 0fbe da8d aa3e
00000110: f29e aa3c c3a2 94be c214 fc3d c181 89be
00000120: 7d51 023e 50e4 5e3e 0e34 fcbc 3b77 3cbd
00000130: 9bcf bcbd 85fb 54be 4c74 5d3d 7da4 753e
00000140: f0d0 063f ec48 63be 994d 33be e17a 4e3e
00000150: 771a 133f 4c0d 32be 4264 05bb d033 003d
00000160: 6f9f c43d e6b0 82bd 8aa0 73bd 34b6 00bd
00000170: 2d35 2fbe bbf2 febd 6305 2abc 8ad1 6e3e
00000180: a9c6 14bd 76bc 5a3d 570c 243e 072d 43be
00000190: 34af 2a3e bd57 af3d c63b 93b4 c3a3 65be
000001a0: 7821 46be 35d0 4c3e

network.4.bias f4 [2]
-0.08466378 0.029622033
00000000: 3464 adbd e8a9 f23c
