torch_mlp_deepshap/splits/4/model.pt (torch, 14845 bytes, 6 tensors)

network.0.weight f4 [61, 6]
0.4248652 -0.16945182 -0.28323382 0.4941205 -0.09098798 0.1611916 -0.12491891 -0.5140325
0.26472622 -0.29218775 -0.101155475 0.16013508 -0.1088764 0.4874886 0.083343945 0.05275823
0.03302261 0.36521038 -0.34303796 0.193438 0.060706187 -0.64595413 0.35224742 -0.025898863
0.033038072 0.09565629 -0.12649992 0.12089998 -0.24551101 -0.17561404 -0.44317347 -0.14437224
-0.020878647 -0.06731488 0.1414953 -0.17263761 0.3090343 -0.22983801 -0.26109028 0.20069796
-0.26394272 0.15799266 0.3655257 0.40037465 0.122501716 0.3249044 0.12462753 0.42598528
-0.22572857 -0.1244078 -0.30368376 -0.37605035 0.07250446 -0.2544871 0.3449793 -0.22642696
-0.26853552 -0.26343697 0.008656607 -0.24358813 0.010929421 0.16446379 0.038434878 0.33159918
-0.20840646 -0.029309483 0.08005132 -0.21575941 0.1558858 -0.45467559 0.47798634 0.25497103
-0.24842486 0.30556333 -0.008661106 0.17381562 0.39580855 0.3048818 0.23428568 0.3608257
-0.08304229 0.26806775 -0.3571098 -0.049353994 -0.29248208 -0.14237347 -0.5405495 0.24184571
-0.043063104 0.025146436 0.3817388 0.06766031 -0.0748529 -0.3012956 0.15509036 -0.28505632
0.03145004 -0.10407662 0.41757545 -0.095922045 0.25739974 -0.0035621154 -0.0075924736 0.35188606
0.24115293 -0.10237689 -0.21103954 -0.46065497 -0.29975072 -0.28323326 -0.25943884 0.19591963
-0.15969647 -0.2904575 -0.1521818 -0.26480836 0.273568 0.2479107 0.1270999 0.12620135
-0.35116842 0.2707562 -0.34175777 0.25789753 -0.225935 0.20522864 -0.1133625 0.76747936
0.025741348 0.51162577 0.13699305 0.19891132 0.07116687 -0.07409005 0.20620933 0.40411147
-0.04803127 0.23363447 0.071786486 0.48760134 -0.24769975 -0.29510525 0.104833096 -0.095559716
-0.20245166 0.18451858 -0.072574526 -0.02201895 -0.3354249 0.045073364 0.23419932 -0.18322875
0.23760122 -0.22736928 -0.13451022 -0.21895774 0.41502592 0.015181012 0.13048908 0.057191536
0.25833443 -0.23806563 0.1146917 0.13241073 -0.23025529 -0.53264993 0.077254534 0.20550205
-0.22986364 -0.47303668 -0.11044667 -0.34635994 0.4254675 0.107667975 0.20110728 0.28243622
0.30650693 0.3355653 0.032184485 -0.40877792 0.27228057 0.31150264 0.1865051 -0.2637729
0.32823408 0.38007566 -0.12377515 0.36193654 0.43559307 -0.040975787 0.26110482 -0.020685364
0.10864387 0.40965804 -0.11191762 0.46512833 0.2482995 -0.07846974 0.3263993 0.33817
0.025730755 -0.34489065 0.12234766 0.22357847 0.15296052 0.26573667 0.07130134 0.23889594
0.18149659 0.033264976 -0.42607722 -0.046839308 -0.33028764 0.30350512 0.3137532 0.43129408
-0.14633085 0.21846595 0.24738213 0.24551968 -0.24723691 0.37875456 0.25666106 0.016701235
-0.30647963 -0.22181135 -0.31483102 -0.2843888 0.37285352 -0.1178468 0.31162795 0.29639244
0.2367955 -0.35459343 0.04944953 -0.1259434 -0.31333706 0.2275418 0.089771196 0.27800834
-0.07551155 -0.14384454 -0.15968974 -0.27900413 -0.31788784 0.07736693 0.10841823 0.04229275
0.34346217 0.27389473 0.18349633 0.06789853 0.0927001 -0.06910259 0.3462721 0.30807647
00000000: ee87 d93e c784 2dbe 0604 91be 5dfd fc3e
00000010: e857 babd 690f 253e 7cd5 ffbd a297 03bf
00000020: 328a 873e a299 95be 9a2a cfbd 73fa 233e
00000030: 97fa debd 1b98 f93e 3bb0 aa3d 0419 583d
00000040: b742 073d dbfc ba3e aca2 afbe 9c14 463e
00000050: 0da7 783d 405d 25bf c659 b43e da29 d4bc
00000060: ee52 073d 72e7 c33d 3289 01be 699a f73d
00000070: 3d67 7bbe 2bd4 33be a2e7 e2be 51d6 13be
00000080: b209 abbc 62dc 89bd 25e4 103e eac7 30be
00000090: be39 9e3e a85a 6bbe a0ad 85be c483 4d3e
000000a0: 8023 87be d4c8 213e 2f26 bb3e e8fd cc3e
000000b0: 2ee2 fa3d df59 a63e b83c ff3d be1a da3e
000000c0: 6425 67be 84c9 febd 707c 9bbe ac89 c0be
000000d0: 387d 943d 224c 82be 20a1 b03e 78dc 67be
000000e0: 7d7d 89be 36e1 86be 71d4 0d3c 2b6f 79be
000000f0: 5011 333c 3269 283e e46d 1d3d 5ec7 a93e
00000100: 8168 55be 711a f0bc f2f1 a33d 09f0 5cbe
00000110: 87a0 1f3e 3dcb e8be a0ba f43e 908b 823e
00000120: 1663 7ebe cc72 9c3e 50e7 0dbc b9fc 313e
00000130: 6ba7 ca3e 7819 9c3e 96e8 6f3e 25be b83e
00000140: 1312 aabd 2d40 893e 19d7 b6be 6a27 4abd
00000150: 36c0 95be 5aca 11be 7461 0abf 67a6 773e
00000160: f062 30bd e6ff cd3c 4573 c33e 7d91 8a3d
00000170: 7a4c 99bd 6b43 9abe 02d0 1e3e e7f2 91be
00000180: c2d1 003d 1f26 d5bd 73cc d53e c772 c4bd
00000190: e6c9 833e 6172 69bb 49ca f8bb 692a b43e
000001a0: cbf0 763e faaa d1bd c01a 58be f8da ebbe
000001b0: ed78 99be f303 91be 2bd5 84be 289f 483e
000001c0: 7987 23be d8b6 94be 8cd5 1bbe f694 87be
000001d0: 1b11 8c3e 4ddc 7d3e 7a26 023e ed3a 013e
000001e0: 59cc b3be 8fa0 8a3e e0fa aebe 250b 843e
000001f0: 815b 67be 7527 523e 992a e8bd 8779 443f
00000200: 85df d23c e8f9 023f e847 0c3e 69af 4b3e
00000210: f0bf 913d 86bc 97bd 8a28 533e b3e7 ce3e
00000220: 70bc 44bd e03d 6f3e cb04 933d e2a6 f93e
00000230: 01a5 7dbe 0918 97be bcb2 d63d d0b4 c3bd
00000240: 7d4f 4fbe 70f2 3c3e f4a1 94bd 1661 b4bc
00000250: d0bc abbe d99e 383d f2d1 6f3e 51a0 3bbe
00000260: bc4d 733e 7ed3 68be 0cbd 09be 7536 60be
00000270: 477e d43e c8b9 783c ee9e 053e ac41 6a3d
00000280: 6944 843e 7ac7 73be 7be3 ea3d ae96 073e
00000290: 0bc8 6bbe bf5b 08bf a037 9e3d 216f 523e
000002a0: 6061 6bbe dd31 f2be dd31 e2bd 1756 b1be
000002b0: e0d6 d93e 0781 dc3d 11ef 4d3e 7b9b 903e
000002c0: 7aee 9c3e 37cf ab3e e1d3 033d 574b d1be
000002d0: 5c68 8b3e 467d 9f3e 31fb 3e3e 3e0d 87be
000002e0: 4c0e a83e 4799 c23e d37d fdbd bf4f b93e
000002f0: 0e06 df3e 3ad6 27bd 88af 853e 5a74 a9bc
00000300: ad80 de3d b3be d13e 1135 e5bd 4d25 ee3e
00000310: 3942 7e3e beb4 a0bd cf1d a73e 9e24 ad3e
00000320: 4ec9 d23c 8295 b0be 6991 fa3d c1f1 643e
00000330: afa1 1c3e a30e 883e 7006 923d 23a1 743e
00000340: 3eda 393e db40 083d cb26 dabe 93da 3fbd
00000350: 761b a9be 0665 9b3e 42a4 a03e 94d2 dc3e
00000360: c1d7 15be 8ab5 5f3e be51 7d3e 8369 7b3e
00000370: ac2b 7dbe 1eec c13e 1469 833e 07d1 883c
00000380: e6ea 9cbe 8422 63be 8831 a1be 699b 91be
00000390: a8e6 be3e aa59 f1bd b38d 9f3e c0c0 973e
000003a0: 857a 723e 458d b5be 978b 4a3d 4ff7 00be
000003b0: b76d a0be b800 693e f6d9 b73d 1c57 8e3e
000003c0: cda5 9abd fc4b 13be b585 23be a1d9 8ebe
000003d0: 32c2 a2be 8e72 9e3d 610a de3d 2a3b 2d3d
000003e0: 46da af3e ee3b 8c3e 76e6 3b3e 620e 8b3d
000003f0: 8dd9 bd3d a985 8dbd 944a b13e 33bc 9d3e

network.0.bias f4 [61]
-0.08760389 0.1825022 -0.06745519 -0.05085176 -0.30309206 -0.5034206 0.34718403 0.04715801
0.15190278 -0.14467773 0.42369926 -0.116647616 0.009786616 0.20338216 -0.6200015 -0.14529777
-0.24466465 0.3470297 0.015254761 0.3888277 0.20426264 -0.22319429 -0.14247069 0.18548809
0.46558893 0.16013266 0.5443897 0.11109069 -0.19830078 -0.1859092 -0.31281924 -0.058001593
0.22478871 0.36674616 0.14703767 -0.20882875 0.008494425 0.08198633 0.3613677 0.022868384
0.2467675 0.04299576 -0.22182702 0.14103806 -0.50596124 0.45638686 -0.21980566 0.22309789
0.14762944 0.4357553 -0.2803483 0.055063687 0.06557672 0.24623176 -0.02637931 0.27398667
0.10808029 0.10843699 -0.15183426 0.28024444 -0.5239702
00000000: ab69 b3bd dbe1 3a3e f225 8abd ef49 50bd
00000010: e22e 9bbe 2ce0 00bf 1bc2 b13e c228 413d
00000020: 678c 1b3e 6626 14be 1cef d83e f2e4 eebd
00000030: 0b58 203c 6a43 503e 6bb8 1ebf f0c8 14be
00000040: 5f89 7abe e0ad b13e 1bef 793c 6d14 c73e
00000050: 3a2a 513e 0b8d 64be d6e3 11be 97f0 3d3e
00000060: ac61 ee3e d1f9 233e 205d 0b3f 8483 e33d
00000070: 5c0f 4bbe fb5e 3ebe d829 a0be 1493 6dbd
00000080: 032f 663e 27c6 bb3e 0b91 163e 34d7 55be
00000090: 332c 0b3c 73e8 a73d 3005 b93e 7a56 bb3c
000000a0: 9fb0 7c3e 521c 303d 9f26 63be 486c 103e
000000b0: ad86 01bf 8aab e93e bc14 61be c673 643e
000000c0: 2c2c 173e 521b df3e d089 8fbe 768a 613d
000000d0: 164d 863d 2e24 7c3e 6c19 d8bc fb47 8c3e
000000e0: 3359 dd3d 3614 de3d 717a 1bbe 337c 8f3e
000000f0: e922 06bf

network.2.weight f4 [40, 61]
0.011441901 -0.16953786 0.036333296 0.10272642 0.026900444 0.022480413 0.004328916 0.052420367
-0.05319639 -0.020250525 0.019791156 -0.04241724 0.13208102 0.06825652 0.1028265 -0.1006594
-0.09844521 -0.032902997 -0.03285405 -0.016803896 0.1700202 -0.14428939 0.14446233 -0.055244282
-0.04529134 -0.09027831 -0.062361643 -0.16637847 0.01094509 0.13886215 -0.035439137 -0.050148502
0.05109241 0.0083189355 0.15351374 -0.04706914 0.09848073 0.088123575 0.07780751 -0.009841527
0.06513113 0.046928298 -0.0349016 0.040306576 0.008008434 0.059659816 0.05159253 0.012362537
0.046281748 -0.12836684 0.12688842 0.0656311 -0.00016882544 -0.13599901 0.06372409 0.14284995
0.12912755 -0.02427656 0.03588911 0.030752847 0.006089604 -0.089345045 0.029228328 0.07313434
0.014662557 0.034937136 -0.003332357 -0.06716644 0.07373559 0.00896298 -0.01211769 0.03190272
0.016165644 -0.14187743 0.083168276 -0.025638798 -0.037869226 -0.01700835 -0.041370876 0.028208062
0.058829613 -0.10291825 -0.035852335 -0.011882872 -0.035621036 0.07718442 -0.023790225 -0.033142447
0.0017103424 0.0033143926 0.019007104 0.025201034 0.082255535 -0.017133446 -0.02307679 -0.082297295
-7.1050623e-09 -0.026727034 0.015195296 -0.053040665 -0.108379185 -0.0007729515 0.0938664 0.13484605
-0.0027595966 -0.032044936 0.045369163 -0.012125082 -0.07096554 -0.04404509 0.040420648 0.005401497
0.041492727 -0.033595487 -0.02516985 -0.0065129744 0.044382185 -0.07521 0.06793651 0.004044319
0.099832565 -0.011104298 -0.035344366 0.15166217 -0.23045813 -0.060024966 -0.063375235 -0.15413338
0.19542307 -0.03318112 0.060819414 0.0095972605 -0.014268703 -0.1600929 -0.1813011 -0.031354338
-0.19001167 -0.14924157 0.08753149 0.016736317 0.048611715 0.11746423 -0.019204782 0.11593341
-0.09406278 -0.028999677 0.18298393 -0.06162246 0.11241279 0.16893233 -0.11733728 0.0923969
-0.0035319156 -0.09133179 -0.050330784 0.04788041 0.016601719 -0.19909595 -0.14106543 -0.07619461
0.078810245 -0.08966543 0.037536666 0.038942322 0.14346167 0.13689783 -0.12716682 -0.08149246
-0.18329844 0.007067982 -0.11153015 0.1266479 -0.071290836 0.11528674 0.058994874 -0.03741489
-0.11465943 0.059499435 -0.074336626 -0.09517836 -0.14945218 0.06446538 -0.17965566 0.018226683
-0.014106233 0.03304061 0.3498701 -0.0101432325 -0.021647178 -0.027507119 0.15637362 -0.063944206
1.6342196e-06 0.16102542 -0.053925008 -0.029878657 0.06671838 -0.0072155306 -0.11765527 -0.15487742
-0.06558655 -0.15487298 0.053454768 0.11537148 -0.112078406 0.11073093 -0.006854345 -0.038333673
-0.2321307 -0.10008207 -0.13945056 -0.002285445 -0.02467704 0.07772359 0.059420392 0.018027434
-0.0956647 0.01744236 -0.075453766 0.122842096 -0.014419361 0.103919476 0.19445533 -0.13217852
0.15731217 -0.10928463 0.06751747 -0.005270171 -0.05460405 -0.0017725886 0.15401734 0.11195104
-0.11844085 0.15971278 -0.18254018 0.19858621 -0.027829548 -0.08431022 -0.011707847 0.12549792
0.05206005 0.15175763 -0.11974351 -0.017305134 -0.13493314 0.17459013 -0.13145825 -0.13074508
-0.098927855 -0.056418072 0.020731825 -0.06080019 0.15646996 0.06817959 -0.112046786 -0.028172517
00000000: d076 3b3c 559b 2dbe 39d2 143d 3b62 d23d
00000010: 525e dc3c d828 b83c 94d9 8d3b bdb6 563d
00000020: 75e4 59bd 6ee4 a5bc 1021 a23c b3bd 2dbd
00000030: 3f40 073e 13ca 8b3d b396 d23d 8426 cebd
00000040: a49d c9bd 4bc5 06bd f891 06bd 53a8 89bc
00000050: c619 2e3e 99c0 13be efed 133e d447 62bd
00000060: 6a83 39bd d6e3 b8bd ec6e 7fbd 1e5f 2abe
00000070: 0953 333c e131 0e3e a128 11bd 8468 4dbd
00000080: 4646 513d 254c 083c b532 1d3e 92cb 40bd
00000090: 44b0 c93d 227a b43d 8b59 9f3d 5b3e 21bc
000000a0: 7863 853d e337 403d fbf4 0ebd 8218 253d
000000b0: cf35 033c da5d 743d b052 533d 3d8c 4a3c
000000c0: ee91 3d3d 9972 03be 0aef 013e 9969 863d
000000d0: bc06 31b9 5343 0bbe c781 823d 4247 123e
000000e0: 033a 043e a3df c6bc 7600 133d 65ed fb3c
000000f0: 4d8b c73b 89fa b6bd 3f70 ef3c 75c7 953d
00000100: 393b 703c 3e1a 0f3d ac63 5abb 8f8e 89bd
00000110: af02 973d 76d9 123c 4789 46bc 6dac 023d
00000120: d06d 843c 5148 11be 2154 aa3d 7508 d2bc
00000130: c31c 1bbd 1855 8bbc 8274 29bd 9814 e73c
00000140: 52f7 703d cec6 d2bd e6d9 12bd 61b0 42bc
00000150: 5de7 11bd dd12 9e3d b8e3 c2bc 60c0 07bd
00000160: 912d e03a 4836 593b c9b4 9b3c 6672 ce3c
00000170: 9775 a83d 715b 8cbc 890b bdbc 7c8b a8bd
00000180: ca20 f4b1 a7f2 dabc b1f5 783c 2b41 59bd
00000190: e8f5 ddbd e69f 4aba 073d c03d 1515 0a3e
000001a0: 59da 34bb 8d41 03bd 04d5 393d 48a8 46bc
000001b0: 6256 91bd a068 34bd 1f90 253d 0aff b03b
000001c0: 47f4 293d 6c9b 09bd 0031 cebc ca6a d5bb
000001d0: 18ca 353d b307 9abd 4c22 8b3d 3586 843b
000001e0: 0475 cc3d cdee 35bc 41c5 10bd 544d 1b3e
000001f0: 37fd 6bbe bddc 75bd e0ca 81bd 24d5 1dbe
00000200: fc1c 483e ede8 07bd c71d 793d d43d 1d3c
00000210: 47c7 69bc 65ef 23be ffa6 39be 686d 00bd
00000220: 6b92 42be c8d2 18be b643 b33d 9a1a 893c
00000230: 141d 473d 1691 f03d 5953 9dbc 7f6e ed3d
00000240: fda3 c0bd bb90 edbc 2460 3b3e d567 7cbd
00000250: ad38 e63d 99fc 2c3e 874e f0bd 963a bd3d
00000260: b677 67bb 290c bbbd a727 4ebd 401e 443d
00000270: 5400 883c cfdf 4bbe 7573 10be eb0b 9cbd
00000280: 4467 a13d 82a2 b7bd 0cc0 193d fc81 1f3d
00000290: 9ee7 123e f22e 0c3e 0538 02be 85e5 a6bd
000002a0: 96b2 3bbe 889a e73b eb69 e4bd fdaf 013e
000002b0: ee00 92bd 741b ec3d 9ca4 713d 5b40 19bd
000002c0: 90d2 eabd aeb5 733d cd3d 98bd dfec c2bd
000002d0: fe09 19be 6d06 843d a7f7 37be 2050 953c
000002e0: d41d 67bc 9755 073d 2c22 b33e cd2f 26bc
000002f0: 6c55 b1bc 9c56 e1bc 6820 203e 2ef5 82bd
00000300: 5c57 db35 d9e3 243e 78e0 5cbd 16c4 f4bc
00000310: a5a3 883d 4270 ecbb 3ff5 f0bd 3098 1ebe
00000320: 3e52 86bd 0697 1ebe 63f3 5a3d e247 ec3d
00000330: 5d89 e5bd e6c6 e23d 6a9a e0bb c503 1dbd
00000340: acb3 6dbe d4f7 ccbd 21cc 0ebe 68c7 15bb
00000350: 8127 cabc 8c2d 9f3d cc62 733d 45ae 933c
00000360: dbeb c3bd 48e3 8e3c 8187 9abd a394 fb3d
00000370: 2f3f 6cbc bcd3 d43d 4c1f 473e ce59 07be
00000380: 7116 213e 9fd0 dfbd 9946 8a3d 66b1 acbb
00000390: 7fa8 5fbd 3456 e8ba b9b6 1d3e 9646 e53d
000003a0: 1e91 f2bd bf8b 233e d0eb 3abe 2f5a 4b3e
000003b0: cbfa e3bc d6aa acbd 45d2 3fbc 8782 003e
000003c0: eb3c 553d 5a66 1b3e 163c f5bd 7fc3 8dbc
000003d0: ea2b 0abe c1c7 323e fe9c 06be 0ae2 05be
000003e0: b09a cabd a316 67bd cad5 a93c 9f09 79bd
000003f0: a939 203e bea1 8b3d c978 e5bd 0dca e6bc

network.2.bias f4 [40]
0.036124237 -0.10013324 0.08317271 0.1036194 0.11531011 0.043239232 0.037315667 0.07658695
0.06392692 -0.019264672 0.040609267 -0.062515944 0.009504257 0.15933405 0.11308343 -0.10499843
0.047594626 0.1479466 0.14686614 0.07633148 0.041761886 -0.0684385 -0.17109339 -0.020773867
-0.04594988 -0.012926237 0.0735071 0.13883305 0.048348654 -0.025515081 -0.0134719 0.14010371
0.18679488 0.12848751 0.11100466 0.10762858 0.2931276 0.055961113 0.18088962 0.13622741
00000000: 02f7 133d a812 cdbd 7456 aa3d 6836 d43d
00000010: b527 ec3d 9f1b 313d 50d8 183d 9ed9 9c3d
00000020: 1eec 823d f2d0 9dbc e755 263d 5c08 80bd
00000030: beb7 1b3c 7728 233e 4998 e73d 6b09 d7bd
00000040: 95f2 423d 507f 173e 1464 163e ae53 9c3d
00000050: 830e 2b3d 7c29 8cbd 1b33 2fbe f52d aabc
00000060: f135 3cbd 91c8 53bc e48a 963d 402a 0e3e
00000070: 3d09 463d 0105 d1bc 3eb9 5cbc 5977 0f3e
00000080: 2847 3f3e 3b92 033e 6956 e33d 5f6c dc3d
00000090: d214 963e 7b37 653d 213b 393e 337f 0b3e

network.4.weight f4 [2, 40]
0.06326327 -0.1376808 -0.24595137 0.10316497 0.014723424 0.114767306 -0.18798396 0.11704379
-0.121490315 0.0068222233 -0.27407962 0.20008948 0.4138315 -0.16310892 -0.12334508 0.25640693
0.32128555 -0.047485642 -0.8293967 -0.23126775 0.2127 0.0061318814 -0.045501776 0.20811382
0.61704266 0.09549007 -0.09716034 0.11497598 0.045770515 -0.020488983 -0.2400258 -0.19055523
0.13897036 0.15931796 -0.37460226 -0.108082674 0.23833674 -0.17736745 -0.22163673 -0.16302328
0.17564194 -0.03488272 -0.13667023 0.23698018 -0.2107991 0.09371211 -0.2545105 0.17167765
-0.16949406 0.6096485 -0.0635672 0.11109899 0.4065179 -0.17020369 -0.15342553 0.0002364937
-0.21337645 -0.23722558 -1.0323248 -0.17625974 -0.26001307 0.2697172 -0.8753357 0.1958994
0.54497063 0.20548104 -0.113214575 0.23268382 -0.2524577 0.23658356 0.107435584 -0.2151378
0.10848598 -0.09116287 0.22132824 -0.173022 0.7162035 -0.05431119 0.027240086 -0.018696435
00000000: 2c90 813d 32fc 0cbe adda 7bbe 2848 d33d
00000010: 843a 713c 1f0b eb3d de7e 40be a8b4 ef3d
00000020: eacf f8bd f58c df3b 2a54 8cbe 42e4 4c3e
00000030: b9e1 d33e 0606 27be 589c fcbd c547 833e
00000040: 8a7f a43e 4e80 42bd 5853 54bf 74d1 6cbe
00000050: 07ce 593e f3ed c83b 1260 3abd ca1b 553e
00000060: 82f6 1d3f 4c90 c33d 00fc c6bd 8778 eb3d
00000070: dd79 3b3d 83d8 a7bc 53c9 75be e920 43be
00000080: 3f4e 0e3e 3f24 233e decb bfbe 735a ddbd
00000090: 8c0e 743e d09f 35be bdf4 62be 93ef 26be
000000a0: 7bdb 333e 2fe1 0ebd 48f3 0bbe efaa 723e
000000b0: b8db 57be 22ec bf3d 334f 82be 44cc 2f3e
000000c0: da8f 2dbe ed11 1c3f 852f 82bd de87 e33d
000000d0: 1d23 d03e e049 2ebe 951b 1dbe 4bfb 7739
000000e0: 5b7f 5abe 43eb 72be 3823 84bf 6f7d 34be
000000f0: 6f20 85be 5f18 8a3e 0016 60bf da99 483e
00000100: 3283 0b3f 9f69 523e 0bdd e7bd ab44 6e3e
00000110: 2342 81be f642 723e 3007 dc3d 154d 5cbe
00000120: e62d de3d 99b3 babd dfa3 623e ae2c 31be
00000130: 1d59 373f 6975 5ebd 9a26 df3c 4429 99bc

network.4.bias f4 [2]
-0.040879972 -0.10416988
00000000: c271 27bd 0557 d5bd
