torch_mlp_deepshap/splits/1/model.pt (torch, 15549 bytes, 6 tensors)

network.0.weight f4 [58, 6]
-0.21012208 -0.325837 -0.12269554 -0.12773985 -0.16788948 0.15754832 0.18586162 -0.47125196
-0.11731114 -0.34211454 -0.14486706 0.1035361 0.05694482 -0.2630091 -0.062331326 -0.09136484
-0.17751752 0.16353932 0.38677046 0.36688057 -0.283639 0.052274402 -0.07743103 0.31552884
0.031036504 0.15224673 -0.24493453 -0.07602913 -0.060082767 -0.45599714 -0.34890375 0.43471164
0.2841023 0.31533828 0.25412488 0.337099 0.119388394 -0.17092095 -0.24240418 -0.2557276
-0.3454339 0.08484631 -0.22870743 -0.07014811 0.22742733 0.20598313 0.23934098 0.46034896
-0.11538065 -0.041677937 -0.25862333 -0.1492273 -0.19133854 0.11860518 0.21684504 0.21381615
-0.20188178 -0.066285886 -0.24226971 -0.1819241 -0.043961037 0.013292356 -0.20600371 -0.22446705
-0.26704398 -0.35045287 0.3118809 -0.1050947 0.41942137 -0.29118252 0.33612224 -0.31539127
0.15802306 0.1614668 0.38616782 0.21890682 0.10892648 -0.20250267 -0.45296073 -0.12502342
0.47866744 -0.24202362 0.23551017 -0.3726776 0.2543965 -0.117006786 -0.12023981 0.4986822
0.18949649 0.3843284 0.30564368 0.26771423 -0.34911048 0.40462756 0.09237322 0.34153125
-0.09666245 0.12405833 -0.0001283553 -0.1559299 -0.33437586 0.0842677 -0.07789633 -0.11465152
0.37253958 -0.29391325 -0.047208745 -0.018269217 -0.29208633 -0.074720286 -0.17617324 0.052518852
-0.13590159 0.0954192 -0.024802012 -0.21630356 -0.19011517 0.14185472 0.34369275 0.5186037
0.34152505 0.3018036 0.2407321 -0.12082951 -0.15726252 -0.315271 -0.27926508 -0.30587202
-0.22994827 -0.077922404 0.43903697 0.12747853 -0.2477312 0.27666476 -0.14672521 -0.17525904
-0.24211442 0.30477405 -0.34282628 -0.32584634 0.14885098 -0.041816898 -0.37943506 0.119215526
-0.044116884 -0.42583722 0.21103367 -0.41839123 -0.31729427 0.0667231 0.07554172 -0.034344554
-0.4336814 -0.14160036 0.03979787 0.21545765 -0.08474641 -0.26707527 0.28480032 0.11521757
-0.42064816 0.22607115 -0.1597318 0.21179806 0.093253605 -0.020570474 0.30956727 0.13642047
0.1789812 0.06743672 -0.014473129 -0.25403956 0.20065993 0.23316981 0.16720629 -0.18280965
-0.17702399 0.43471545 -0.154661 0.20111062 0.26520643 0.28175417 -0.043574337 0.15659806
-0.21310791 -0.01598349 -0.3350787 0.3019361 0.1972906 0.4707008 0.06570822 0.1334711
-0.3117378 -0.18928932 0.022139216 -0.24450608 -0.043669228 -0.2911449 -0.37629518 -0.0004383449
-0.40671182 0.046571285 0.13704301 0.1514336 0.07582257 0.23817392 -0.3149945 0.0431053
-0.17379059 -0.14123708 0.3692508 -0.17656347 0.14465739 0.057243403 -0.082491875 -0.12577268
-0.14671223 0.008845577 0.03312263 -0.3700867 -0.16858706 0.27012452 -0.027991671 -0.023015846
-0.12083546 0.14048904 0.14937116 -0.7934551 -0.08433682 0.10914348 -0.24220425 -0.32060456
-0.32025546 0.2593285 0.31307876 -0.14624856 -0.1413937 0.41527897 -0.017302854 0.28161377
-0.2541453 -0.28914848 -0.12698479 0.26128915 0.19735469 0.28015405 0.4264216 0.5307191
-0.28280967 -0.06980771 -0.17038235 -0.44375637 -0.10343003 0.20772088 -0.3013616 -0.32353082
00000000: 3e2a 57be 1bd4 a6be cd47 fbbd 3cce 02be
00000010: 38eb 2bbe 5954 213e 8252 3e3e f047 f1be
00000020: d340 f0bd a329 afbe 0858 14be bc0a d43d
00000030: f93e 693d 21a9 86be 224f 7fbd 7d1d bbbd
00000040: 27c7 35be da76 273e c706 c63e c5d7 bb3e
00000050: 2239 91be af1d 563d 2994 9ebd ff8c a13e
00000060: 4440 fe3c 91e6 1b3e 1ed0 7abe 29b5 9bbd
00000070: 5919 76bd 7578 e9be 83a3 b2be 8692 de3e
00000080: db75 913e 0574 a13e a81c 823e 3d98 ac3e
00000090: e781 f43d e705 2fbe cd38 78be baee 82be
000000a0: b6dc b0be e7c3 ad3d 4832 6abe d0a9 8fbd
000000b0: b6e2 683e 3eed 523e cd15 753e dcb2 eb3e
000000c0: b14c ecbd 7cb6 2abd 476a 84be 0bcf 18be
000000d0: 40ee 43be 46e7 f23d a00c 5e3e 9ff2 5a3e
000000e0: 19ba 4ebe e5c0 87bd 8d15 78be 504a 3abe
000000f0: 7d10 34bd 2fc8 593c a3f2 52be b1da 65be
00000100: fdb9 88be 8f6e b3be daae 9f3e e43b d7bd
00000110: 66be d63e e015 95be 3718 ac3e f77a a1be
00000120: ccd0 213e 8e57 253e cab7 c53e 1c29 603e
00000130: d914 df3d dc5c 4fbe 78ea e7be 2406 00be
00000140: e613 f53e 0ad5 77be 9429 713e 99cf bebe
00000150: 4240 823e 41a1 efbd 4a40 f6bd 4653 ff3e
00000160: 5e0b 423e b1c6 c43e 547d 9c3e d711 893e
00000170: 9cbe b2be 582b cf3e 2c2e bd3d 2fdd ae3e
00000180: f6f6 c5bd 4b12 fe3d 1d97 06b9 16ac 1fbe
00000190: 5033 abbe 8b94 ac3d 1c88 9fbd 6bce eabd
000001a0: 82bd be3e cc7b 96be f55d 41bd 53a9 95bc
000001b0: 578c 95be f306 99bd c266 34be 021e 573d
000001c0: c929 0bbe 246b c33d 972d cbbc ae7e 5dbe
000001d0: 8dad 42be 5d42 113e 7ff8 af3e 36c3 043f
000001e0: 5fdc ae3e 0086 9a3e 7a82 763e 7675 f7bd
000001f0: 6d09 21be 336b a1be d5fb 8ebe 429b 9cbe
00000200: 8f77 6bbe c895 9fbd 74c9 e03e bb89 023e
00000210: 3fad 7dbe 01a7 8d3e 223f 16be 1b77 33be
00000220: d8ec 77be 580b 9c3e ed86 afbe 55d5 a6be
00000230: 646c 183e 3248 2bbd 5045 c2be 4527 f43d
00000240: e8b3 34bd 5607 dabe 3619 583e 6037 d6be
00000250: 6574 a2be 1fa6 883d 9eb5 9a3d e0ac 0cbd
00000260: 7d0b debe afff 10be 1703 233d eea0 5c3e
00000270: 878f adbd 17be 88be 59d1 913e 30f7 eb3d
00000280: 325f d7be 327f 673e bc90 23be 97e1 583e
00000290: bffb be3d 6983 a8bc 9a7f 9e3e cfb1 0b3e
000002a0: d946 373e 431c 8a3d b420 6dbc 7911 82be
000002b0: cc79 4d3e 11c4 6e3e 2038 2b3e 7432 3bbe
000002c0: c745 35be 0693 de3e 745f 1ebe f1ef 4d3e
000002d0: 23c9 873e 1542 903e 017b 32bd 3e5b 203e
000002e0: f638 5abe cfef 82bc 6f8f abbe 5e97 9a3e
000002f0: 8c06 4a3e b2ff f03e 0892 863d a6ac 083e
00000300: 199c 9fbe 0fd5 41be 4d5d b53c cd5f 7abe
00000310: 81de 32bd f210 95be c3a9 c0be a8d1 e5b9
00000320: 883c d0be 88c1 3e3d 0155 0c3e 6911 1b3e
00000330: dd48 9b3d dde3 733e f646 a1be 2f8f 303d
00000340: 29f6 31be 74a0 10be 710e bd3e 0ecd 34be
00000350: 1121 143e 0f78 6a3d 80f1 a8bd 8eca 00be
00000360: bb3b 16be 0aed 103c 98ab 073d 017c bdbe
00000370: 16a2 2cbe c34d 8a3e ca4e e5bc ba8b bcbc
00000380: 9578 f7bd 5cdc 0f3e c1f4 183e e01f 4bbf
00000390: c8b8 acbd 9e86 df3d 6404 78be 4826 a4be
000003a0: 86f8 a3be b5c6 843e dc4b a03e 2fc2 15be
000003b0: 83c9 10be 729f d43e b7be 8dbc ae2f 903e
000003c0: 551f 82be 450b 94be 4d08 02be b1c7 853e
000003d0: 5917 4a3e 5a70 8f3e ef53 da3e 35dd 073f
000003e0: 6ecc 90be 58f7 8ebd b678 2ebe 0934 e3be
000003f0: 20d3 d3bd c8b4 543e 114c 9abe d5a5 a5be

network.0.bias f4 [58]
-0.2989409 -0.40867257 0.42174315 -0.039213706 0.4562217 0.08076155 -0.09618293 -0.11972614
0.198344 0.11908595 -0.21453586 -0.23303805 0.315346 0.06991038 -0.21867354 -0.15668695
0.076753974 -0.043443296 -0.17537272 -0.22512984 -0.21379735 -0.02829798 0.05879823 0.26153183
0.3072527 -0.348457 -0.036902595 0.33524826 -0.0091288835 0.057625346 0.1341311 0.07818236
-0.10216274 -0.018451482 0.42323366 0.36042842 -0.046273053 -0.2600029 -0.14220175 -0.14182128
0.38583103 0.20216522 -0.48460278 -0.27485684 0.5022125 0.19131458 0.38432047 -0.41125515
0.3621895 0.21265969 0.40100837 0.23579998 -0.42725345 0.16706343 0.008527022 0.008539695
-0.240558 -0.51024365
00000000: c80e 99be 883d d1be b8ee d73e 8d9e 20bd
00000010: e495 e93e 5066 a53d 8efb c4bd fa32 f5bd
00000020: b11a 4b3e 56e3 f33d 4aaf 5bbe 87a1 6ebe
00000030: 0875 a13e 2c2d 8f3d f5eb 5fbe 8b72 20be
00000040: 3031 9d3d 99f1 31bd e894 33be 7088 66be
00000050: b1ed 5abe 2ad1 e7bc 6ad6 703d 80e7 853e
00000060: 3a50 9d3e f568 b2be 2d27 17bd a9a5 ab3e
00000070: 5091 15bc 8e08 6c3d aa59 093e 131e a03d
00000080: b33a d1bd 9027 97bc 15b2 d83e 138a b83e
00000090: d088 3dbd 1a1f 85be 569d 11be 9939 11be
000000a0: a58b c53e 6604 4f3e db1d f8be 09ba 8cbe
000000b0: 0091 003f f8e7 433e a7c5 c43e 0990 d2be
000000c0: e770 b93e 76c3 593e f850 cd3e 8d75 713e
000000d0: f7c0 dabe ad12 2b3e ecb4 0b3c 14ea 0b3c
000000e0: d654 76be 549f 02bf

network.2.weight f4 [45, 58]
-1.3467527e-17 4.1514372e-15 -0.037486058 -0.116516836 -0.0005104467 -0.006068175 3.8343846e-18 0.00017357612
-5.8874956e-14 -1.705484e-18 1.4886525e-17 0.075217724 0.051525872 -0.0019489594 0.05136125 -0.055108596
1.9979204e-06 -0.021729399 1.0120062e-18 8.951216e-18 0.028601827 2.5168672e-18 -4.3215214e-12 -0.0015288381
-1.1690212e-08 -6.8490126e-19 1.7085414e-17 0.030569203 -0.08526985 -0.0014773937 -0.09705573 0.029689962
1.2441317e-16 3.2017124e-20 0.030292368 0.05152304 -1.8121635e-18 -8.4145056e-19 4.974191e-18 0.052711345
0.051337156 1.2202041e-13 2.4175845e-19 4.45396e-18 -0.030348264 -0.013159505 -0.04301455 -1.36366746e-17
-0.019904353 6.0753397e-19 -0.08547563 -0.13793616 6.038776e-18 -0.046676192 -0.11842274 6.705519e-07
-0.008443941 5.9725732e-18 -0.06748002 -0.12578851 0.028223172 0.030078253 0.113986224 -0.15402855
-0.0036181025 -0.053115346 0.100245796 0.107081115 -0.0024217302 -0.0010320214 -0.027443169 -0.19674803
-0.01121561 -0.029191284 8.366507e-05 -0.14866576 0.06909547 -0.17539063 0.16462575 -0.043647356
-0.023839049 -0.031395253 0.104163215 -0.0655179 -0.16212434 0.020897387 -0.0561657 -0.077518314
0.025687844 -0.11641027 0.13471168 -0.009278177 0.121439144 -0.032839585 -0.0025636507 0.3849336
0.0129219 -0.11711068 0.13109101 0.22137573 -0.16258541 -0.08709207 0.15743849 0.026661452
0.123075135 -0.10365018 -0.008551136 -0.04443902 -0.08352472 -0.026878184 -0.018646644 -0.06305018
0.065890856 -0.02856416 -0.03948799 -0.10594139 0.08548009 -0.023684861 0.07663626 -0.06749098
-0.0070740297 -0.055506382 0.03644504 -0.005019596 0.03125011 -0.08911485 -0.008295645 0.051283702
-0.05366373 -0.051254388 0.00025667148 -0.051111117 -0.068801954 0.07045247 -0.075191185 -0.0029254607
-0.014225866 0.063692376 0.07363373 0.050517917 0.011161403 -0.0802797 0.025410345 -0.11252874
0.00157436 -0.013016513 -0.03922625 -0.11071605 -0.035115886 -0.050245877 0.083555564 0.018316733
0.027413191 -0.11525046 0.053355932 -0.002227915 0.030591628 -0.06313053 -0.013686857 0.09957993
0.026809977 -0.049802806 -0.027882444 -0.010416094 0.096065626 0.10346736 -0.001930825 -0.09621656
0.102991946 0.00807303 -0.06234054 -0.09773095 0.031358205 0.012534341 -0.12990099 -0.043962512
0.13951756 0.10134377 0.069434 -0.037303492 0.004508222 -0.06830301 -0.026347663 0.12333185
-0.015354311 0.02826733 -0.12795307 -0.2219923 -0.009537944 0.017161993 0.028265115 -0.15867168
-0.04542872 -0.054517373 -0.029276349 -0.059925657 0.1013313 0.11937829 -0.13917917 -0.041668843
-0.00055931957 -0.025222942 -0.005586627 0.049926788 0.15874793 -0.04283849 -0.0387588 -0.06911691
0.21206905 -0.020241596 0.080927484 -0.034589816 -0.042898174 0.0694624 -0.019569406 0.2231524
-0.056251373 -0.035276383 0.1386025 -0.052153617 -0.009342892 -0.030667556 -0.033809394 -0.1038878
0.12411888 0.010118072 -0.09804761 0.033644598 0.20679598 -0.13210186 -0.058459353 -0.14691325
0.05105588 -0.09933099 0.1059596 -0.07163924 0.148883 0.09497407 0.057435423 -0.052557454
-0.071158476 0.13367839 0.10658655 0.22870448 0.07587968 -0.019702744 -0.08325204 -0.0020838277
-0.09944026 0.07172132 0.13218291 -0.050150566 0.23058723 -0.041603085 -0.108982734 0.000541125
00000000: 996e 78a3 4092 9527 fb8a 19bd 61a0 eebd
00000010: 80cf 05ba 8bd7 c6bb bd76 8d22 fc01 3639
00000020: 1a93 84a9 5daf fba1 d04d 8923 c00b 9a3d
00000030: cb0c 533d 3a74 ffba 2d60 523d 8db9 61bd
00000040: 0314 0636 da01 b2bc 8358 9521 ec1e 2523
00000050: 614e ea3c 47b6 3922 ce0c 98ac 4b63 c8ba
00000060: 19d6 48b2 ad25 4aa1 cb95 9d23 446c fa3c
00000070: f6a1 aebd 1ba5 c1ba 28c5 c6bd 5d38 f33c
00000080: 4970 0f25 5432 171f b327 f83c d309 533d
00000090: cdb6 05a2 355a 78a1 e883 b722 dae7 573d
000000a0: e946 523d fd61 092a 81b5 8e20 7652 a422
000000b0: ec9c f8bc f79a 57bc 0630 30bd 608d 7ba3
000000c0: 740e a3bc f84f 3321 d90d afbd 233f 0dbe
000000d0: a0ca de22 892f 3fbd 9f87 f2bd faff 3335
000000e0: 7558 0abc 5c59 dc22 f732 8abd b4ce 00be
000000f0: 4834 e73c ab66 f63c 9c71 e93d a9b9 1dbe
00000100: b01d 6dbb 7a8f 59bd ab4d cd3d 584d db3d
00000110: e4b5 1ebb e444 87ba 7fd0 e0bc 5178 49be
00000120: aec1 37bc 8f22 efbc 5875 af38 d63b 18be
00000130: ed81 8d3d 9a99 33be a793 283e 92c7 32bd
00000140: 1c4a c3bc 4f98 00bd 8653 d53d 402e 86bd
00000150: ec03 26be ff30 ab3c 010e 66bd ecc1 9ebd
00000160: 506f d23c 8268 eebd dcf1 093e 7f03 18bc
00000170: 16b5 f83d cd82 06bd ec02 28bb 0416 c53e
00000180: 60b6 533c b9d7 efbd b93c 063e 52b0 623e
00000190: ca7c 26be 545d b2bd 8e37 213e 1e69 da3c
000001a0: d10e fc3d 8c46 d4bd 101a 0cbc b105 36bd
000001b0: 020f abbd a32f dcbc d9c0 98bc 7420 81bd
000001c0: c9f1 863d 63ff e9bc 29be 21bd cdf7 d8bd
000001d0: 2f10 af3d c106 c2bc 79f3 9c3d b638 8abd
000001e0: 43cd e7bb a95a 63bd 6547 153d 6c7b a4bb
000001f0: 1e00 003d d981 b6bd 75ea 07bc dc0e 523d
00000200: 80ce 5bbd 1ff0 51bd dd91 8639 e459 51bd
00000210: 0ae8 8cbd 6249 903d d6fd 99bd 16b9 3fbb
00000220: 9b13 69bc 2671 823d 48cd 963d e0eb 4e3d
00000230: 51de 363c af69 a4bd 5b29 d03c 7875 e6bd
00000240: c15a ce3a 3643 55bc b4ab 20bd 19bf e2bd
00000250: add5 0fbd 9fce 4dbd 2e1f ab3d f90c 963c
00000260: a191 e03c 6f08 ecbd c08b 5a3d 3602 12bb
00000270: 4b9b fa3c 944a 81bd d73e 60bc 90f0 cb3d
00000280: 99a0 db3c 07fe 4bbd b969 e4bc 44a8 2abc
00000290: 0ebe c43d b2e6 d33d bc13 fdba 300d c5bd
000002a0: 71ed d23d be44 043c cb58 7fbd 2a27 c8bd
000002b0: 7671 003d d65c 4d3c c404 05be 0912 34bd
000002c0: b1dd 0e3e 538d cf3d 6a33 8e3d 8ccb 18bd
000002d0: b5b9 933b 73e2 8bbd 0ed7 d7bc 6995 fc3d
000002e0: a690 7bbc e390 e73c 2106 03be f351 63be
000002f0: 0945 1cbc 4f97 8c3c 3e8c e73c d47a 22be
00000300: 7713 3abd 9c4d 5fbd f4d4 efbc 9b74 75bd
00000310: c986 cf3d 9b7c f43d fc84 0ebe f3ac 2abd
00000320: 4d9f 12ba 58a0 cebc 0610 b7bb 0880 4c3d
00000330: d18e 223e 6a77 2fbd 8cc1 1ebd 2b8d 8dbd
00000340: a128 593e b4d1 a5bc 4fbd a53d 0dae 0dbd
00000350: ffb5 2fbd 4e42 8e3d 0550 a0bc 1082 643e
00000360: d767 66bd f87d 10bd d0ed 0d3e 089f 55bd
00000370: ee12 19bc 873a fbbc b87b 0abd 20c3 d4bd
00000380: 0a32 fe3d 45c6 253c 2fcd c8bd ebce 093d
00000390: 53c2 533e b645 07be 1373 6fbd 6d70 16be
000003a0: f81f 513d 0c6e cbbd 5901 d93d 98b7 92bd
000003b0: c974 183e c481 c23d 6841 6b3d 7c46 57bd
000003c0: 89bb 91bd fde2 083e 0d4a da3d 8231 6a3e
000003d0: ce66 9b3d a667 a1bc 0c80 aabd d490 08bb
000003e0: 56a7 cbbd a1e2 923d f55a 073e ae6a 4dbd
000003f0: 0f1f 6c3e ff67 2abd 5732 dfbd 49da 0d3a

network.2.bias f4 [45]
-0.06446936 0.10576934 -0.0643413 0.1486574 -0.03647953 0.009679329 0.14219442 0.061450418
0.03944152 0.15242049 0.19086625 0.206569 0.11001729 -0.07332496 -0.014523105 0.1814639
0.09166957 -0.008789616 0.096984 -0.05690692 0.007086866 -0.03356274 0.065042235 0.058678135
0.08972942 -0.09312703 0.18542922 0.13089234 -0.024346381 -0.031310033 0.14039312 0.115139544
-0.012117143 0.03415202 0.026074758 0.09314829 0.10741193 -0.07126965 0.120552115 0.1393132
0.083297096 -0.039164454 -0.13016646 -0.04314615 0.15621284
00000000: 8308 84bd 999d d83d 5fc5 83bd a539 183e
00000010: 8f6b 15bd 0c96 1e3c 6a9b 113e 6fb3 7b3d
00000020: 6e8d 213d 1e14 1c3e 7172 433e d386 533e
00000030: bf50 e13d 662b 96bd 51f2 6dbc acd1 393e
00000040: 41bd bb3d 5202 10bc 8c9f c63d 3b17 69bd
00000050: f138 e83b 1579 09bd dd34 853d 7c58 703d
00000060: 0fc4 b73d 62b9 bebd 28e1 3d3e a408 063e
00000070: 1072 c7bc f33e 00bd 37c3 0f3e 48ce eb3d
00000080: fb86 46bc fde2 0b3d bb9a d53c 88c4 be3d
00000090: c9fa db3d d2f5 91bd 07e4 f63d 1fa8 0e3e
000000a0: ab97 aa3d e86a 20bd 5b4a 05be 04ba 30bd
000000b0: 42f6 1f3e

network.4.weight f4 [2, 45]
-0.09784405 -0.20081595 -0.00519014 -0.2125747 0.06859599 -1.0019615 0.119458824 0.09468571
-0.091728866 0.2129809 -0.1833918 -0.0624538 -0.21926498 0.09815818 -1.4874547e-09 0.16487284
-0.19649532 -0.079320855 -0.21898165 0.079958186 0.056741077 -0.14887415 0.19123426 0.124201946
-0.12865286 0.0425007 -0.17641374 -0.16379043 0.2506994 0.14725888 -0.08775936 0.1774464
0.110509954 0.14014842 0.12399118 0.76434803 0.0059883986 0.2100614 -0.14443836 -0.22892414
-0.26437378 0.2056393 0.10906631 -0.018315094 0.16372943 0.052193664 -0.1250854 -0.16663289
0.15436411 -0.20738702 0.2497204 0.112022 0.19129843 0.0121807875 0.07310345 -0.2635631
-0.2586041 -0.17879228 0.21476014 -1.5073436e-08 0.049593773 -0.11059077 -0.14551227 -0.27079397
0.28371042 -0.25833035 0.15512533 0.10422322 -0.12827544 -0.22716019 0.42634302 0.0015322362
-0.0069780196 -0.15480313 0.15317057 0.123839214 0.09097 0.18508951 0.009507458 0.117555775
1.0784608 -0.27877346 0.004557412 -0.19221207 -0.035119217 0.1433527 0.2456354 0.05964451
-0.18106338 -0.16832785
00000000: 7662 c8bd b2a2 4dbe 0d12 aabb 2fad 59be
00000010: 0e7c 8c3d 4640 80bf d4a6 f43d 95ea c13d
00000020: 58dc bbbd aa17 5a3e 0fcb 3bbe 8ecf 7fbd
00000030: 0087 60be 2807 c93d 296f ccb0 6dd4 283e
00000040: 1236 49be f972 a2bd ba3c 60be 1ec1 a33d
00000050: 5569 683d 7772 18be ead2 433e 975d fe3d
00000060: 93bd 03be 3715 2e3d cea5 34be aeb8 27be
00000070: ac5b 803e 08cb 163e 2ebb b3bd 82b4 353e
00000080: 0b53 e23d 1183 0f3e 16ef fd3d 50ac 433f
00000090: 543a c43b 561a 573e a6e7 13be 176b 6abe
000000a0: 005c 87be 1c93 523e 285e df3d 8909 96bc
000000b0: b0a8 273e 06c9 553d 6316 00be d0a1 2abe
000000c0: a011 1e3e 435d 54be b4b6 7f3e ca6b e53d
000000d0: bce3 433e ed91 473c 43b7 953d bef1 86be
000000e0: c267 84be 5315 37be 15ea 5b3e d67a 81b2
000000f0: d722 4b3d 6a7d e2bd 2b01 15be 82a5 8abe
00000100: 7e42 913e e043 84be 2dd9 1e3e fc72 d53d
00000110: a35a 03be ae9c 68be a249 da3e 51d5 c83a
00000120: dfa7 e4bb b684 1ebe bfd8 1c3e 6a9f fd3d
00000130: 7b4e ba3d 1b88 3d3e 2bc5 1b3c 15c1 f03d
00000140: 010b 8a3f 65bb 8ebe 5856 953b 3ed3 44be
00000150: 2bd9 0fbd 0dcb 123e d987 7b3e cd4d 743d
00000160: ae68 39be 235e 2cbe

network.4.bias f4 [2]
0.01679264 -0.057512477
00000000: b890 893c 3492 6bbd
