torch_mlp_deepshap/splits/5/model.pt (torch, 10429 bytes, 6 tensors)

network.0.weight f4 [24, 6]
00000000: e71a 73be 30f7 0cbe bf7f ba3e e7b2 0bbf
00000010: 293d 713e 8780 8bbd 580b 1abe d9f5 7d3e
00000020: 525e 973e 26a6 bfbe adc1 afbe 9020 843d
00000030: 25cf 2c3d 4309 b5be 82fa e33e 39bd e73d
00000040: ce5e a73e 3e66 63be 4140 953e 8e4f b3be
00000050: 8192 d7bd e0fe b33e 277f a0bd 8266 183f
00000060: f7ad 9abd 8836 0e3e 9452 1e3d 2ddb 52be
00000070: 99cb d8be d057 64be fcd2 fabd 5226 65be
00000080: d48f 2fbe ab88 babe e54b 713e 25af bbbe
00000090: 609d c73d 37df aabd c765 f83d 5bd7 733e
000000a0: 6f62 4bbe 0b64 f2be e2c8 ac3c fd5b d93e
000000b0: 3c6d d53d 6ada e13e 9eac 6b3e cb4c 42be
000000c0: 46ee 82be 1dc7 ff3d d174 8e3d 7520 c03e
000000d0: 2366 1bbe cd35 8e3e b9f4 ebbe e6b8 ab3d
000000e0: d7a5 ea3e 0543 b43e c9b5 8e3e da25 ac3d
000000f0: 7725 82be c598 853e 7ddb 683e 07b7 7abc
00000100: ef50 4dbe 5960 ea3d b964 cd3d e916 dc3d
00000110: efe4 b6be fa41 24be 7398 44be e23a f3bd
00000120: 8dc6 c8be 4f6e c13e 755e 23be 282a 04bf
00000130: a0c7 863e 2ce7 973e 4389 ad3e 6acd af3e
00000140: 8d7f 9b3d ffd2 fa3e 3992 87be df36 cd3e
00000150: 6986 13be 2047 b93d 24b4 a1be 2f8a 0bbe
00000160: 55b8 bcbe e6f6 053e 3987 953e 3f83 d7be
00000170: 3649 91be 6648 97be 05d2 27be 7ba8 9cbe
00000180: 376e 693e 0624 fc3e 7296 4c3e 552d 90be
00000190: d802 4a3d 2aaf 53be 9261 b53c 7fe3 4fbe
000001a0: b02e f13d 1976 c3be c4a7 54be 3169 93bd
000001b0: f7a2 57be efdc d8be 4e43 e1be 636c 393e
000001c0: a270 923d 6f5e ad3d 189c d73e d076 50bd
000001d0: 190b ddba d2cd ad3e 72d9 57be c81a afbe
000001e0: 7b9d f2be 0d79 16be 399a 85be 6b6d a7bd
000001f0: 2108 81bd e7d9 2e3e f7a7 be3d 15d5 35be
00000200: 16de 943c ad02 603e 3ac4 a23e c635 4e3e
00000210: a4ec 67be 018c 9bbe 81aa 46bd 15e5 0d3f
00000220: 4fd6 b03e f34e eabd cb3e 4dbd 847f 3fbe
00000230: 2f21 b73e d675 b4be 9c26 ab3d 90be 57be
-0.23740731 -0.1376617 0.36425588 -0.5456986 0.23558487 -0.06811624 -0.1504339 0.24800815
0.29564148 -0.3743145 -0.3432745 0.06451523 0.042189736 -0.3535863 0.4452706 0.11315388
0.32689518 -0.22206971 0.29150584 -0.35021633 -0.1052599 0.35155392 -0.078367524 0.59531415
-0.075527124 0.1388799 0.03865297 -0.20591421 -0.42342833 -0.22299123 -0.12247273 -0.223779
-0.1714471 -0.36432394 0.23564108 -0.36657062 0.09746814 -0.08343356 0.121287875 0.2381262
-0.19861768 -0.47341952 0.021091882 0.42452994 0.104212254 0.4411195 0.23015067 -0.18974607
-0.25572413 0.1248915 0.06955875 0.37524763 -0.15175681 0.27775422 -0.46085146 0.08384876
0.4582965 0.35207382 0.27873066 0.08405657 -0.25419208 0.26093116 0.22739978 -0.015302426
-0.20050405 0.11444158 0.10028977 0.10746557 -0.35721537 -0.16040793 -0.1919878 -0.118764654
-0.39213982 0.3777947 -0.15954001 -0.51626825 0.26324177 0.29668558 0.33893785 0.34336406
0.07592688 0.48989102 -0.26478747 0.40080926 -0.14406742 0.09046769 -0.3158275 -0.13626932
-0.36859384 0.13082466 0.2920473 -0.4209232 -0.28376168 -0.29547423 -0.1638871 -0.3059729
0.2279595 0.49246234 0.19979265 -0.28159586 0.04931912 -0.20672289 0.022141252 -0.20301627
0.11776483 -0.3817604 -0.20767123 -0.07197798 -0.2105826 -0.4235606 -0.43996662 0.18107753
0.07150389 0.084652774 0.42111278 -0.05089456 -0.0016864269 0.3394609 -0.21079043 -0.3420012
-0.47385773 -0.14694615 -0.26094225 -0.08175167 -0.063003786 0.1707531 0.093093805 -0.17757066
0.018172305 0.2187602 0.31790334 0.201377 -0.22648865 -0.30380252 -0.04850245 0.55427676
0.34538504 -0.114408396 -0.050108712 -0.18700987 0.35767505 -0.35246152 0.083569735 -0.21068788

network.0.bias f4 [24]
00000000: 601a 203e 27df 8bbe 9596 333d aadb 54be
00000010: 58fa 073f 6083 bf3e 5fb8 1abe c655 9d3e
00000020: 5959 5b3e ef2b e13c 9177 f23e 6361 7a3e
00000030: 6cfe 65bd f567 c43e 1b74 c33d f1a4 a4be
00000040: 852d b63e 7893 043f 7eef cfbe 7873 0a3f
00000050: d3bd 2bbf 3cf4 a83e 04c3 3ebe da64 a73e
0.15635061 -0.2731869 0.043844778 -0.2078692 0.5311637 0.3740492 -0.15109394 0.30729502
0.21420802 0.02748677 0.47356847 0.24451213 -0.05615084 0.38360563 0.0954363 -0.3215709
0.35581604 0.5178752 -0.40612406 0.5408244 -0.67086524 0.32998836 -0.1862908 0.3269413

network.2.weight f4 [64, 24]
00000000: 11ae f3bd ab25 0a3e 0ead 223d f9cf 9cbe
00000010: 3402 de3d 502e 40bd 91cb f53d 187f 1a3e
00000020: 1087 ff3c e620 92bd 4140 563e 0cd5 b13d
00000030: 03a7 673e c47b a1bd 5999 ad3d 5cf2 1d3d
00000040: 3c39 fd3d db6a 1c3c d9ca 0bbe f2ef 823e
00000050: 0b8d 54be c865 cfbd 7252 303c 7a98 4a3e
00000060: 9255 d4bc 8924 c3ba 55a1 00be 060a bdbd
00000070: 2bbf 2b3e 5585 fc3d ad15 813e 0514 b0bd
00000080: 4874 d1bc 4bf9 e1bd 7d83 8bbd a55e 853d
00000090: 5a74 203e a0cc d7bd fb07 6fbd 6b8c 2bbe
000000a0: 8367 1d3c e022 023e c01e e7bd c965 2d3e
000000b0: a24b 63be 5da2 503e ac43 8e3d c9cb a23d
000000c0: 9674 19bd d5df db3d b536 5dbe a9be 52be
000000d0: d979 973e a7cf 01bc 2510 613d ffd3 4bbd
000000e0: f33c ce3d 296b 10be 60e7 6a3e 90f2 cebd
000000f0: 46c1 5d3e 3dfa 293d ba7c 31bd d647 783b
00000100: 01ef 303d e614 d43d 9432 2ebc 16a0 4a3e
00000110: 4229 12be 5d87 e83d 54fc c83d 2e74 de3d
00000120: 348b ea3a fed8 0f3e 9cba 523e 81c5 043e
00000130: a578 a43d 991c 003e dccc 9cbd 58cd 3e3e
00000140: 9d61 2d3e d220 493d 3a03 2fbd 9a48 0ebe
00000150: 5e20 4cbe 1232 f63d fd79 82ba bc22 263e
00000160: 1d34 e5bd 7728 c0bd 3fb2 0d3e dd11 a83d
00000170: fee5 6e3d dabf 153e b43f d43d 54da b9bd
00000180: d361 b6bd 5d1d 843d 3190 29be b1e4 703b
00000190: 8f8a 333e fac6 823e 7888 db3e 9d8a f6be
000001a0: 9d40 843c 2cc5 1abe dd1b 53be 54a0 753e
000001b0: 05ef 103c f396 1cbf 1647 343e 0bb7 913e
000001c0: 5607 10be a0cd 143e b66e dbbe c045 483e
000001d0: bb69 acbe ad93 343d 8885 e93e 42ef 5d3e
000001e0: 5ed2 5ebe e0a5 bcbd eb18 d6bd 1454 d9bc
000001f0: 3f70 4dbd d7a9 f2bb 0233 77bd c43a 043e
00000200: d8f1 ec3d 7393 693d 5840 e23d c29e 38be
00000210: 5aa6 023d a198 7a3e f001 b43d 32fe dc3d
00000220: 7b74 343e b5c6 54bd 73b8 d53d 5093 5ebe
00000230: ca39 dc3c a396 5a3d 38f3 e8bd dd3b afbd
00000240: 0982 c73c cb8f b63c 9ad3 523e 42ca 0f3e
00000250: 5dfc 6a3d e78d 833d 2fa3 4b3d 4f68 e03d
00000260: 89dc bcbd 7dcf 9c3d 93cc 3dbe 902b 07b7
00000270: 9193 26be 8c62 c3bd 2b8d 0c3e 6727 30bd
00000280: 6029 563e c793 a1bd ffc9 e23d 8339 ab3d
00000290: 75c4 9c3e 1cf3 093e e60d 1c3d a1bd 7e3e
000002a0: cfa8 e7bd 388d c2ba b018 d9bc bd7d 3fbe
000002b0: 82e9 893e 910d 0d3e 2c92 0d3d 1033 a2bd
000002c0: ac40 953d acf6 16be 018e 673e 83a7 853d
000002d0: e313 e43d babf 723d a7ac 3a3e 1620 a7bb
000002e0: 66ca 953e df64 d03d 9840 003b 9dd6 923e
000002f0: 662e 3cbe 1041 a53c 56ee fd3d 9616 673d
00000300: 69bf e2bd 9682 40be e582 1b3e 376b 893e
00000310: 1ec0 54be 9624 7bbe 0265 94bd bdfa a33d
00000320: 6005 843e 2643 f03d b112 a23d d71d 6e3d
00000330: 681b 6d3e cf3f 8f3e 3427 813c b98f 193e
00000340: eb9c c1bb ae1a 643d 8ff0 383e 1daf 09be
00000350: 1634 903d 6bd0 263e ec91 96bd 8add 51be
00000360: bfb3 773e cbf5 fe3d 75de 4d3d 1109 a13d
00000370: 76ce 16be c858 0f3e e926 133e fe45 393e
00000380: e207 0dbc 2ddb 553e 8946 9dbd 6022 cd3d
00000390: a2b4 f53d 0504 413d b00b 46be 2a64 e63d
000003a0: 760a 63bc a8b9 25be 5efb 903b 7b80 efbd
000003b0: 80b6 533d 83f6 4d3e 0c85 01bc 4023 ae3d
000003c0: 06f4 873d 290c 2cbc 9749 1ebd 4a03 053e
000003d0: cfef 4c3d ad61 47be afd9 3f3e d83f 03bd
000003e0: 9313 073e fc77 d33d 40a6 01be 9155 923a
000003f0: c653 57be e86d 943e a69b 2b3d 864a fa3d
-0.11898435 0.13490932 0.03971582 -0.3062742 0.10840264 -0.046919167 0.12001718 0.15087545
0.031192333 -0.07135181 0.20922948 0.086832136 0.22622304 -0.078849345 0.08476514 0.03856121
0.12364432 0.009546961 -0.13651599 0.2557369 -0.20756929 -0.10126835 0.010761844 0.19784728
-0.02591971 -0.0014888208 -0.12561543 -0.092304274 0.16772144 0.123301186 0.2521185 -0.085975684
-0.025568143 -0.11033877 -0.06812189 0.06512193 0.15669385 -0.10537076 -0.05835722 -0.16752784
0.009607199 0.12708616 -0.11285162 0.16933359 -0.2219682 0.20374437 0.06946501 0.07949025
-0.0374647 0.10736052 -0.216029 -0.20580544 0.2958515 -0.007923043 0.054947037 -0.049762722
0.10070219 -0.14103378 0.22939825 -0.10104859 0.21655759 0.04149841 -0.04333184 0.0037884614
0.043196682 0.103555486 -0.010632176 0.1978763 -0.14273551 0.113539435 0.09813753 0.10862003
0.0017894269 0.1404762 0.20578998 0.12965967 0.080308236 0.12510909 -0.07656261 0.1863302
0.16931768 0.049103566 -0.042727686 -0.13894883 -0.19934222 0.12021269 -0.0009954568 0.16224188
-0.111915804 -0.09382718 0.13837527 0.08206532 0.058324806 0.14623967 0.10363713 -0.09074846
-0.08905377 0.06450913 -0.16558911 0.0036757404 0.17533325 0.25542432 0.42877555 -0.4815263
0.016144091 -0.15114278 -0.20616098 0.23986942 0.008846049 -0.6116783 0.17605242 0.28459963
-0.14065298 0.14531565 -0.42857903 0.19557858 -0.33674416 0.044086147 0.4560969 0.21673301
-0.21759936 -0.09211326 -0.104539715 -0.02652935 -0.050155874 -0.0074055004 -0.06035138 0.12913042
0.115695655 0.057025384 0.11047429 -0.18029311 0.031896926 0.24472286 0.08789432 0.107906714
0.17622559 -0.051947314 0.104355715 -0.21735883 0.026883025 0.053366315 -0.11374515 -0.0855634
0.024353998 0.022285363 0.20588532 0.14041999 0.05736958 0.0642355 0.04971617 0.10957395
-0.09221751 0.07656763 -0.1853507 -8.05677e-06 -0.1626723 -0.09540281 0.13725726 -0.043006327
0.20914221 -0.078895144 0.11073684 0.08360579 0.30618635 0.13471645 0.038099192 0.24877025
-0.113114946 -0.0014843112 -0.02650103 -0.18700309 0.26935965 0.13774706 0.03456323 -0.07919896
0.07287726 -0.14742535 0.22612764 0.06526091 0.111366056 0.059264876 0.18229924 -0.0051002605
0.2925598 0.1017549 0.001956975 0.28679362 -0.18377075 0.020172626 0.123989746 0.056418024
-0.11071665 -0.18799815 0.15186651 0.2683961 -0.20776412 -0.24525675 -0.07245828 0.08006809
0.2578535 0.117315575 0.07913721 0.058133926 0.23154986 0.2797837 0.015765764 0.14996232
-0.0059085987 0.055689506 0.18060516 -0.13445707 0.070411846 0.16290443 -0.07352051 -0.20494667
0.24189661 0.12449225 0.05026098 0.078630574 -0.14727196 0.13998711 0.14370312 0.18093106
-0.008607836 0.2088439 -0.07679469 0.10016322 0.119973436 0.047122974 -0.19340396 0.112495735
-0.013857475 -0.16184103 0.0044244966 -0.116944276 0.051687717 0.20113568 -0.007905256 0.08502817
0.06638341 -0.010500946 -0.0386444 0.12989536 0.050033387 -0.19470854 0.18735383 -0.032043308
0.1319106 0.103256196 -0.12661076 0.0011164417 -0.21028051 0.28990102 0.041896485 0.122212455

network.2.bias f4 [64]
00000000: 3d10 9b3d 7466 9b3e 4f6a 7b3d 203e 9fbd
00000010: 8b00 8e3d 8e42 103b f515 0ebe 526e 933b
00000020: 82cc 0a3d d0b6 613e 7dc4 293d cbbf 213e
00000030: 84b7 ca3d 53bb 923d 7621 213e bf47 1f3e
00000040: 8885 723d 6cfb ef3d d4e2 0cbe 4d25 32bd
00000050: 310f 1ebe e04d 10bc 394d 28be b0c9 323e
00000060: a925 813d 4fd9 87be 0819 653e 78fc b63d
00000070: 2b7f 343e d196 8e3e 7a68 853d 9681 4b3b
00000080: 83a4 233d 2d79 3c3e b074 d5bd 6a22 c4bc
00000090: 6846 153d 2a22 183e 4be8 653d 7302 933d
000000a0: e48b bb3c 4bad c5bc 5339 adbd 66fd 1fbe
000000b0: 9644 363d 8724 c33d a80e 67bd bc49 763e
000000c0: b5f9 603e b7a7 5abd d98d 34b5 bd64 15be
000000d0: 5a13 dc3c 7efb 86bc d606 083e d608 86be
000000e0: 61de f4bb d527 5a3e 1123 303e 01ee 8b3e
000000f0: 0191 a9bd 4d1a bc3a df8e 36bd 2d88 0dbb
0.075714566 0.30351603 0.06138068 -0.07775521 0.06933697 0.0022012326 -0.13875563 0.004499235
0.03388644 0.22042394 0.04144715 0.1579582 0.09898284 0.071646355 0.1573542 0.15554713
0.059209377 0.11717877 -0.13758403 -0.043492604 -0.15435483 -0.008807629 -0.16435708 0.1745975
0.06306011 -0.2653298 0.2237283 0.08934873 0.17626636 0.2784944 0.06514068 0.003105258
0.039951812 0.184056 -0.10422647 -0.023942191 0.036444098 0.14856783 0.056129735 0.071782015
0.022893853 -0.024130484 -0.08458199 -0.15624008 0.044499002 0.095284514 -0.05641046 0.24051565
0.21970256 -0.0533826 -6.726164e-07 -0.1458921 0.026864696 -0.016477343 0.13283858 -0.26178616
-0.0074727987 0.21304257 0.17200877 0.2733002 -0.082796104 0.00143511 -0.044569846 -0.002159606

network.4.weight f4 [2, 64]
00000000: 5901 66be 504f 46be 4f4a 64be 6ab1 683d
00000010: 3098 16bf ec07 1e3e b05b 863e 9c0f 17be
00000020: 651f 463e f90a 493e 4bef 61bd f522 f83d
00000030: f071 243d d234 cfbd bae6 81bd a527 1dbd
00000040: d43d 5cbe 7b37 3839 a446 c2bc 30f8 823d
00000050: 3032 e53e 1baa 01be 2dd7 3f3d 09cf 563f
00000060: 37fb 203e 269c 79bd a833 53be 4b09 b63d
00000070: c302 99be 9280 49be 836a 95be ac4c 003d
00000080: d7fe 68be 6b4b 2ebe 946e 2c3e f34b 53be
00000090: a465 0a3d c308 73be 679a da3c aa1b 0f3e
000000a0: d0b1 283e 4e44 ae3e c439 f13d b762 693d
000000b0: 6d47 17be c0da 5a3d 75ab df3d 1e9b 133f
000000c0: c25e 7e3d b315 39be b7d9 1235 b2e7 0a3e
000000d0: 0131 8abd cc94 363f 41aa 4d3d 6487 c83d
000000e0: b412 093e d4fc 473e b0e1 2fbe ca50 a7bd
000000f0: 3df1 4c3e 8404 423e e657 dd3e 9868 02be
00000100: a9e7 7ebe 3fcb 71be 2b8d 1cbe eb57 1f3e
00000110: a1c2 40bf 2aa1 f13d b5c9 19bd f707 3ebe
00000120: 1f96 773e f281 ec39 6ac3 1c3e e080 e4bb
00000130: a81b 633e 1d48 4dbe 3a3c 8b3e 5271 14be
00000140: 2048 09be 678c 703e 3a52 6cbc b7e1 f8bd
00000150: e4a9 efbe bc8c 83bc e6ad ae3d b0ae c6bd
00000160: 32c9 463e b109 183e 0c39 1dbe 0e92 383e
00000170: 2dbc 033c 29a2 1fbe 35ba 9dbe b0d4 913d
00000180: 5a7a 923d 9cb4 413b fc44 043e 38a0 18be
00000190: bc74 993d 6e4c 2a3e b161 b53c f9de 18bd
000001a0: c313 ccbd 70f2 773f da21 143e 5a5f 88bd
000001b0: bf5a 8b3d e290 343e f335 bf3e 404c 5b3f
000001c0: a6a4 2bbe 67d0 483f 742f 9533 0c76 123d
000001d0: 675f d73d 913a 433f 0400 39be b5d5 173f
000001e0: dc4b 643e 88c2 f53d 38f5 0cbe 391f 19be
000001f0: 68b2 783e db43 3bbe 18ef 233e e13b ac3d
-0.22461452 -0.19366193 -0.22293971 0.05680982 -0.5882597 0.1543271 0.26241827 -0.14752048
0.19347914 0.19633092 -0.05515985 0.121160425 0.04014772 -0.101174966 -0.06342836 -0.038367886
-0.2150796 0.00017568276 -0.023715325 0.06394994 0.44764853 -0.12662546 0.046836067 0.8390966
0.15720831 -0.06093993 -0.20625174 0.08888491 -0.2988492 -0.19677952 -0.29182824 0.03132312
-0.22753464 -0.17020957 0.16839057 -0.20634441 0.03378834 -0.23733811 0.026684953 0.13975397
0.1647408 0.34036487 0.11778596 0.056978907 -0.1477334 0.053431273 0.10921375 0.57658565
0.062102087 -0.18074684 5.4706055e-07 0.13564947 -0.06747628 0.71320796 0.050211195 0.09791449
0.13386041 0.1953004 -0.17175937 -0.08169706 0.200139 0.18947035 0.43231124 -0.12735212
-0.24893059 -0.23612688 -0.15288226 0.15560882 -0.7529698 0.11798318 -0.03754588 -0.18557726
0.2417836 0.00045110245 0.1530892 -0.006973371 0.22178519 -0.2004704 0.27194387 -0.14496353
-0.1340642 0.23491059 -0.014423901 -0.12152427 -0.46809304 -0.016058318 0.08529262 -0.09701288
0.19412687 0.14847447 -0.15353793 0.18024465 0.00804047 -0.15589203 -0.30806127 0.07120645
0.07152243 0.0029557114 0.1291694 -0.14904869 0.074929684 0.16630718 0.02214131 -0.03732202
-0.09964707 0.96854305 0.14466038 -0.06658812 0.06804418 0.17633393 0.37345847 0.85663223
-0.16762027 0.78442997 6.946985e-08 0.03575711 0.105162434 0.7626124 -0.18066412 0.59310466
0.22294563 0.119999945 -0.13765419 -0.14953317 0.24286807 -0.18287604 0.16009176 0.084098585

network.4.bias f4 [2]
00000000: 540e d2bd ffa7 68bc
-0.10256639 -0.01420021
